Computer_Vision/Tensorflow/models/dtl_swing_classifier.tflite (tflite, 26024 bytes, 6 tensors)

model/dense_2/MatMul f4 [10, 64]
00000000: 9287 72be 4f04 12bf e52e 97bf 330f d63d
00000010: 726e 523e d930 95be 54ed 52bf 7a10 ebbe
00000020: 7f67 4fbf c67f 5e3e 0f4a 003f 7cff 8f3d
00000030: 6c2d 1a3f 4b14 c43e f417 cf3e ffbf fa3d
00000040: a213 0e3f e789 4e3e 0c7d 153f c421 7dbf
00000050: a198 4bbf b141 ef3d 27db 173f d5b2 99bf
00000060: 4399 e13e 0d8c 25be 77d9 f1bd 3a8c 90be
00000070: bf04 95bf a028 073e b634 d53e 9759 1e3d
00000080: c11f 133e 759b e2be 6f3c e93d d45e 2cbf
00000090: 3afc 92bf 4843 84bf ed8c 813e cacf febd
000000a0: fc0f 91bf ae6d 6a3e 2c8b d5be a642 393e
000000b0: 742b bdbf d160 4e3f 3021 663e ed72 05bf
000000c0: 1cf8 c93c 1240 173e 0e4e 47bc fe2f e03e
000000d0: 2270 f7be a405 acbf d64f 98bf 7773 8b3c
000000e0: 4878 e6be bf0c 18bf be7b 7abf e684 e5be
000000f0: 6d46 0fbf f712 c4be 5037 5bbf aa22 6bbf
00000100: e3bd 5fbe 0be3 ffbd b59f 6bbf a306 b73e
00000110: bfad a53e 9d9d 453f e21d a13e bc1a afbd
00000120: 6d43 bbbe cc06 83bf bd2b acbe ea54 c7bf
00000130: af40 29be 330f 5ebe a53c a83e c24f a7bf
00000140: a872 dd3e ab24 77bf 4955 11bf ac29 f8be
00000150: 8c62 573e 1248 f5bf 909e cabd b695 663e
00000160: 7bc9 61be 826b eb3e aa6a 823f 0eae e63e
00000170: aed2 2b3e e93c acbf 45e7 b5be a171 adbf
00000180: e807 36bf ee24 823f c282 94bf ab66 03bf
00000190: 6836 c8be aa56 b9be 9127 91bf 1c67 623f
000001a0: 27a0 223e 6f31 86bf e310 e03d dd7a 3f3f
000001b0: 3f4a bb3d f81e 41be c854 7f3e 5332 ca3e
000001c0: 49b1 293e f7a5 8bbf 5de2 f1be 70b6 ce3e
000001d0: dc2c c23e 1aff 05bf 1262 1f3e fdfe 273e
000001e0: 26c3 393f f93a a93e 0e38 5cbf eecc 693c
000001f0: e685 ce3e 8c28 6b3e e58e 20bf 216f 75bf
00000200: 2130 bfbc 161b 44be 3038 c03e fc53 a3bf
00000210: 66fc 82bf cc4c c9ba 9cb1 bebf 6709 e4be
00000220: a3f2 203e 72eb 813e bcd0 353e 6431 a83d
00000230: 783f 6dbf 3193 8f3e 7ba1 58bf e0de 483d
00000240: 0e2e 6cbf 52be 133e 49fb a2be 611a 553e
00000250: 0568 343d 29c8 b73d c3a9 063d 0b92 d7bf
00000260: b4dd 863e aa28 a0be 5099 d73c 8a84 05be
00000270: 6708 b8bf 00d7 183e 2fa1 a2bd e411 893d
00000280: d4ec 3d3e 9783 06bf 6f1c aebd 58be 693d
00000290: 7afc f43d 2d11 203d c91c 4b3e cdbe 003e
000002a0: 92ac 0ac0 4330 413d 9bcf 2bbf 1f2c 8ebe
000002b0: 06c2 db3d 7be2 7cbe b106 64bf d018 3bbf
000002c0: 2feb 02bf 35bd d6bb 315b 813e 50a8 87bf
000002d0: 5b24 34bf 31fd 4a3e acab bcbf d7dd bdbf
000002e0: 7163 a5be 3be1 15bf ca33 9e3e 9d80 b53e
000002f0: b282 79bf 4e9b f8be 95cc ae3e db02 0c3e
00000300: 8bef 40be 2640 12be 40ac 853e 0b21 33bf
00000310: 2812 2dbf 117e 8dbe 0090 573e 922d a3bd
00000320: 2483 33be 73d0 ad3d ab92 3ebf a3dd 433d
00000330: 8143 45bf 9f56 6fbf 54e0 05bf 8dec 2cbd
00000340: 4fcd e1be a4ab 693d df9d 40bf 79ee 803e
00000350: 2581 5cbe bfd5 aa3b 5147 a0bf 8eeb d13d
00000360: 4a0f 9bbf 5edb 9e3b a195 20be dc03 76bf
00000370: 1161 d33d 70e3 f8bb a584 67bf 0931 b33d
00000380: bd1d 9fbd 9b91 12be bc23 b63c 7a87 bf3d
00000390: 13e3 943e c72a d63d 94ff 4e3e 7779 b5be
000003a0: b035 50bd 1718 fc3d c29f 42bf dcc0 0cbe
000003b0: 97b1 473e 0da7 eabe e5fd 64be 4c8e 39bf
000003c0: 7564 74bf 3647 4fbe 69af 90bf abc8 07bf
000003d0: 679f 84bf e621 7a3e 1521 823d 0b85 8ebf
000003e0: bb8c e8be a471 14bf c4cc 023e ad4d 03bf
000003f0: 0eb5 58bf d771 45bf cd82 9e3e 932c 893d
-0.23684528 -0.57037824 -1.1811186 0.10452118 0.20549944 -0.2913883 -0.82393384 -0.45911008
-0.810173 0.21728429 0.50113004 0.07031152 0.6022556 0.38296732 0.40447962 0.122436516
0.5549871 0.20169793 0.5839393 -0.9887965 -0.7952977 0.116824515 0.59318775 -1.20077
0.44062242 -0.16166706 -0.11809056 -0.28231984 -1.1642073 0.13199091 0.41641778 0.03865966
0.14367582 -0.4425923 0.1138848 -0.67332196 -1.1483223 -1.0333033 0.2530283 -0.12441976
-1.1333003 0.22893402 -0.41707742 0.1809183 -1.4778886 0.8061648 0.22473598 -0.5212849
0.02465444 0.14770535 -0.012164606 0.43786615 -0.48327738 -1.3439221 -1.1899364 0.017022831
-0.45013642 -0.5939445 -0.97845066 -0.44827956 -0.55966836 -0.3829572 -0.85631275 -0.9184977
-0.2184978 -0.12494477 -0.9204057 0.3574725 0.3235912 0.77193624 0.3146811 -0.08550021
-0.3657488 -1.0236449 -0.3362712 -1.5572789 -0.16528581 -0.21685486 0.32858768 -1.3071215
0.43251538 -0.96540326 -0.5677076 -0.48469293 0.21033686 -1.9162619 -0.09893525 0.22518048
-0.22049515 0.4598046 1.0188801 0.45054668 0.16779587 -1.3456088 -0.35528007 -1.3550302
-0.71105814 1.016752 -1.1602404 -0.51328534 -0.3910401 -0.36198932 -1.13402 0.8843858
0.15881406 -1.0483836 0.10940721 0.7479685 0.09145021 -0.1885947 0.24934685 0.3949152
0.16571535 -1.0910023 -0.47243014 0.40373564 0.3792485 -0.5234238 0.15564755 0.16405864
0.725634 0.33052805 -0.8602303 0.01427005 0.4033653 0.22964686 -0.6271804 -0.95872694
-0.02333838 -0.19150957 0.37542868 -1.2760005 -1.0233276 -0.001535797 -1.4897952 -0.44538423
0.15717559 0.25374943 0.17755407 0.082125455 -0.9267497 0.28041986 -0.846214 0.049040675
-0.92257774 0.1442807 -0.3183234 0.20810844 0.044044513 0.089737244 0.03287674 -1.6841444
0.2634102 -0.31281024 0.026318222 -0.13038841 -1.4377564 0.14925766 -0.079408996 0.066928655
0.18547374 -0.5254454 -0.08501517 0.05706629 0.119622186 0.03907888 0.198352 0.12572785
-2.1667829 0.047165167 -0.67113656 -0.27768037 0.107303664 -0.2469577 -0.8907271 -0.73084736
-0.5114011 -0.006553317 0.25264886 -1.059824 -0.70367974 0.19823147 -1.473989 -1.4833325
-0.3230243 -0.585468 0.30898887 0.35449687 -0.9746505 -0.48555988 0.3414046 0.13672964
-0.18841378 -0.14282283 0.2610798 -0.69972295 -0.6760583 -0.27635244 0.21051025 -0.07967676
-0.17530495 0.08487024 -0.7444255 0.04781879 -0.7705613 -0.9349155 -0.5229542 -0.04221778
-0.4410195 0.057048455 -0.7524089 0.2518194 -0.2153364 0.005213469 -1.2521764 0.102500066
-1.2114041 0.004847928 -0.15682079 -0.9609964 0.10321248 -0.007595472 -0.90436774 0.08749587
-0.07769344 -0.14313357 0.022233836 0.09352012 0.29079494 0.10457378 0.20214683 -0.35444233
-0.05083245 0.12309282 -0.7602502 -0.13745445 0.19501339 -0.45830575 -0.22362478 -0.7248275
-0.95465785 -0.20242009 -1.1303531 -0.5304057 -1.0361146 0.24426994 0.06353966 -1.1134351
-0.4541987 -0.579859 0.12773424 -0.512904 -0.8465127 -0.7712683 0.30959168 0.06697955

model/dense_2/BiasAdd/ReadVariableOp/resource f4 [10]
00000000: 712a 3d3d 4d34 4cbe dc3c c2bc c169 f13c
00000010: 0270 113e 89b7 103e fea2 ad3a e4c4 69be
00000020: 4aae 02be 2dfd d7bd
0.046183053 -0.19941826 -0.02371066 0.029469373 0.14202884 0.14132513 0.0013247428 -0.22829014
-0.12761799 -0.10546336

model/dense_1/BiasAdd/ReadVariableOp/resource f4 [64]
00000000: da53 3bbd fe74 1abd 442d 993e 335d a23c
00000010: 38a7 29bc 1f1e e4bd 2af8 5ebc d9a7 2abc
00000020: b9c1 093e a710 963e 4dac 2c3e 96bb cc3d
00000030: b6fe 063a 3f44 353e 660f a23b 775a 153e
00000040: d20c e33c cffa 833e 5939 803d bacb 153e
00000050: 854e 6cbb d460 e13d 0279 433d 3c99 523d
00000060: 648a 1e3e 6f14 e2bd 0a05 b7bd e6ee 343c
00000070: b227 523c 7888 b93e 9563 183e 4632 513e
00000080: 3c30 cf3e 7801 17bd 1ca7 e33d ecc6 563d
00000090: d9f3 703e f7a4 db3d e9fe 7f3e 0956 08be
000000a0: a498 fdbc 2775 e43d c5d7 26bd 36b2 f5bc
000000b0: a1cc 223e d925 463d 1ebc 963d 7ccd 90bd
000000c0: 3ff1 703c 9e13 593a acc8 823e da66 573c
000000d0: 67bc 353b 1f99 893e 2a6d 843d 42d9 1cbc
000000e0: ee37 e3bd f789 39bc fe9a 8d3e 1aeb 29bd
000000f0: 8cc4 8abd 9752 d3bb 0e0e 1d3e 6d25 653d
-0.045734264 -0.03770923 0.29917347 0.019819831 -0.010354809 -0.11138558 -0.013608972 -0.010415995
0.13452806 0.2930958 0.16862603 0.09996717 0.0005149649 0.17701815 0.0049456833 0.14585291
0.027716074 0.2577729 0.06260938 0.14628497 -0.0036057543 0.110047966 0.047722824 0.051415667
0.1548248 -0.11039054 -0.08936508 0.011043286 0.012826847 0.3623693 0.14881738 0.20429334
0.40466487 -0.036866635 0.11115858 0.0524358 0.2353052 0.10724824 0.24999584 -0.1331407
-0.030956574 0.111551575 -0.040733118 -0.029992204 0.15898372 0.048375938 0.07360099 -0.07070443
0.014705955 0.0008280816 0.25543725 0.01314708 0.0027730705 0.26874635 0.06466134 -0.009573283
-0.11094652 -0.011324397 0.27657312 -0.041483976 -0.067757696 -0.0064490545 0.15337393 0.055943895

model/dense/BiasAdd/ReadVariableOp/resource f4 [128]
00000000: 832a 25bc a0f3 48bd 43aa 01bc 1e56 8cbd
00000010: e3ba 3fbd b2fb 40bc 2eea 1bbc 4d8d 053d
00000020: 6464 0cbc a830 abbb 87ff 95bc 3829 67bd
00000030: f720 e7bc de07 1c3d 0000 0000 d1e2 a9bb
00000040: d73d 13bd a6d8 38bb c000 163d 0000 0000
00000050: adc2 fdbc 8294 133c 0000 0000 8205 e63b
00000060: 0b48 7cbc 852d a93c 0000 0000 8de0 6f3c
00000070: 00be c3bd 0000 0000 ca98 14bc 74aa 38bc
00000080: 8aa6 04bd 0000 0000 0000 0000 4841 5f3c
00000090: 3dba c4bb 147d dfba a1ab 6a3c 1aa3 f83d
000000a0: c67a 92bd b5e6 a0bc 6e5a 853c eefe da3d
000000b0: 0000 0000 80bf d5bd 0000 0000 bd58 a5bd
000000c0: f4d0 e23d 2a9c e23c 9b53 ccbd 0524 a13c
000000d0: 0358 13bc aa6f 09bd 1778 1dbc 0000 0000
000000e0: fa4f bbbd d252 6a3d bb37 963c 088c b0bd
000000f0: 0000 0000 f12e 4cbc 8884 7ebd b9d9 5ebc
00000100: 49bd 303c 52f6 c2bd a134 0a3e 9317 f23d
00000110: d8b8 fabb 4030 afbb 10db ef3b 1966 a03a
00000120: c280 bd3d c7db 16bc 6bc3 32bc 0000 0000
00000130: 08a7 1a3c 6a29 0e3d b88d 533d 0000 0000
00000140: fe7d 0e3a 7601 94bd 692b 7ebd a19a c03d
00000150: 4eb0 55bc f14f 17bc 0000 0000 3a8a 4ebd
00000160: 5ca9 e8bc e940 1b3d 58cc 45bd 285b 7e3c
00000170: 07a1 04bc 0a22 2a3c 8a37 7f3c 3309 55bd
00000180: 6ef7 1d3d 0802 1f3d 8240 a2bc 65c8 f6bb
00000190: c144 9ebc 4b94 a2bc 70d8 b23c 17c0 57bb
000001a0: b422 453c e6e2 c33d 6539 463d d13f 2bbd
000001b0: 0000 0000 1edc 2dbd f945 6bbb 80fa cdbc
000001c0: a9e3 31bc e495 0f3c c87e e7bb 0000 0000
000001d0: bda1 12bd fe37 12bc 5b97 88bd 9a3a 88bd
000001e0: aea0 15bc a231 2fbc 0000 0000 0000 0000
000001f0: 6b27 8ebc e924 a5bc a191 e33a 0371 bfbc
-0.010080936 -0.049060464 -0.007914129 -0.06852363 -0.04680909 -0.011778759 -0.009516282 0.032605458
-0.008568857 -0.005224306 -0.018310321 -0.056435794 -0.028213961 0.03809344 0.0 -0.0051845093
-0.035947647 -0.0028205304 0.03662181 0.0 -0.030976618 0.009007575 0.0 0.0070196996
-0.015398036 0.020651588 0.0 0.014640939 -0.09557724 0.0 -0.009069631 -0.011271108
-0.032385387 0.0 0.0 0.013626404 -0.0060036466 -0.0017050826 0.014323146 0.12140484
-0.071523234 -0.01964126 0.016278472 0.10693155 0.0 -0.10436916 0.0 -0.08073566
0.11075011 0.027662355 -0.09976884 0.019670496 -0.008993152 -0.033553757 -0.009611151 0.0
-0.09146114 0.05720789 0.018337121 -0.08620459 0.0 -0.012462364 -0.06213811 -0.013601714
0.010787317 -0.09519638 0.13496639 0.11820903 -0.0076514296 -0.005346328 0.0073198155 0.0012237459
0.09253074 -0.009207672 -0.010910849 0.0 0.009439237 0.034707464 0.051648825 0.0
0.00054356444 -0.07226841 -0.062053118 0.09404493 -0.013042523 -0.009235368 0.0 -0.050424792
-0.02840107 0.0379037 -0.04829058 0.015524663 -0.008095033 0.010384092 0.015577206 -0.052010726
0.038566045 0.038820297 -0.01980615 -0.007531213 -0.019319894 -0.019846102 0.021831721 -0.003292089
0.0120322 0.09564762 0.04839458 -0.041808907 0.0 -0.04244625 -0.0035899861 -0.025143862
-0.010857501 0.008763764 -0.007064674 0.0 -0.035798777 -0.008924482 -0.06669494 -0.06651802
-0.009132547 -0.010692986 0.0 0.0 -0.01735278 -0.020159202 0.0017362126 -0.023369318

model/dense/MatMul i1 [128, 34] scale=0.019437974 zero_point=0
00000000: 09ff fdfc fa01 fa04 fa0a fc09 fa03 0704
00000010: 0909 fc02 0702 07fc ff03 0805 04f6 0805
00000020: f801 03f0 04f0 fdff 0304 fef7 e8fe fbfe
00000030: edf5 1df4 f6e5 11e6 e503 1407 d9fb 22f5
00000040: f300 03f4 fb03 04fc fc06 05fc 0201 0108
00000050: 0106 01fb fffe 08f7 fc05 07ff 0008 f6fc
00000060: fc03 f8fe 0000 fb02 fdf8 07f2 fbf9 05fa
00000070: 0006 0901 faf6 1501 05d6 0cdb f8f4 1210
00000080: f4f9 10f5 06fc edf6 fd13 0909 0013 0307
00000090: 04ff 1101 df0b 1906 cafc 0e05 ee12 2a27
000000a0: d1da 410a c306 fb0c c907 fc0f 080d 0b06
000000b0: ff10 fd0f 0fff ec0f 1cf5 d403 0b12 f107
000000c0: 301d dddf 38fb bb05 f910 d910 fe05 fd0a
000000d0: fcfa f9fc 05fb f80a 0801 ff05 fe05 fb07
000000e0: fb01 fa08 04fa f906 01ff 01fa fbf9 f20c
000000f0: ed00 e903 f3f9 e8fc e605 fdfb c910 ce08
0.17494176 -0.019437974 -0.05831392 -0.0777519 -0.11662784 0.019437974 -0.11662784 0.0777519
-0.11662784 0.19437975 -0.0777519 0.17494176 -0.11662784 0.05831392 0.13606583 0.0777519
0.17494176 0.17494176 -0.0777519 0.03887595 0.13606583 0.03887595 0.13606583 -0.0777519
-0.019437974 0.05831392 0.1555038 0.09718987 0.0777519 -0.19437975 0.1555038 0.09718987
-0.1555038 0.019437974 0.05831392 -0.3110076 0.0777519 -0.3110076 -0.05831392 -0.019437974
0.05831392 0.0777519 -0.03887595 -0.17494176 -0.46651137 -0.03887595 -0.09718987 -0.03887595
-0.36932153 -0.21381772 0.5637013 -0.23325568 -0.19437975 -0.52482533 0.33044556 -0.5053873
-0.52482533 0.05831392 0.3887595 0.13606583 -0.758081 -0.09718987 0.6608911 -0.21381772
-0.25269365 0.0 0.05831392 -0.23325568 -0.09718987 0.05831392 0.0777519 -0.0777519
-0.0777519 0.11662784 0.09718987 -0.0777519 0.03887595 0.019437974 0.019437974 0.1555038
0.019437974 0.11662784 0.019437974 -0.09718987 -0.019437974 -0.03887595 0.1555038 -0.17494176
-0.0777519 0.09718987 0.13606583 -0.019437974 0.0 0.1555038 -0.19437975 -0.0777519
-0.0777519 0.05831392 -0.1555038 -0.03887595 0.0 0.0 -0.09718987 0.03887595
-0.05831392 -0.1555038 0.13606583 -0.27213165 -0.09718987 -0.13606583 0.09718987 -0.11662784
0.0 0.11662784 0.17494176 0.019437974 -0.11662784 -0.19437975 0.40819746 0.019437974
0.09718987 -0.8163949 0.23325568 -0.719205 -0.1555038 -0.23325568 0.34988353 0.3110076
-0.23325568 -0.13606583 0.3110076 -0.21381772 0.11662784 -0.0777519 -0.36932153 -0.19437975
-0.05831392 0.36932153 0.17494176 0.17494176 0.0 0.36932153 0.05831392 0.13606583
0.0777519 -0.019437974 0.33044556 0.019437974 -0.64145315 0.21381772 0.48594937 0.11662784
-1.0496507 -0.0777519 0.27213165 0.09718987 -0.34988353 0.34988353 0.8163949 0.758081
-0.91358477 -0.73864305 1.2634684 0.19437975 -1.1857164 0.11662784 -0.09718987 0.23325568
-1.0690886 0.13606583 -0.0777519 0.29156962 0.1555038 0.25269365 0.21381772 0.11662784
-0.019437974 0.3110076 -0.05831392 0.29156962 0.29156962 -0.019437974 -0.3887595 0.29156962
0.5442633 -0.21381772 -0.85527086 0.05831392 0.21381772 0.34988353 -0.29156962 0.13606583
0.93302274 0.5637013 -0.6803291 -0.64145315 1.0885266 -0.09718987 -1.3412203 0.09718987
-0.13606583 0.3110076 -0.758081 0.3110076 -0.03887595 0.09718987 -0.05831392 0.19437975
-0.0777519 -0.11662784 -0.13606583 -0.0777519 0.09718987 -0.09718987 -0.1555038 0.19437975
0.1555038 0.019437974 -0.019437974 0.09718987 -0.03887595 0.09718987 -0.09718987 0.13606583
-0.09718987 0.019437974 -0.11662784 0.1555038 0.0777519 -0.11662784 -0.13606583 0.11662784
0.019437974 -0.019437974 0.019437974 -0.11662784 -0.09718987 -0.13606583 -0.27213165 0.23325568
-0.36932153 0.0 -0.4470734 0.05831392 -0.25269365 -0.13606583 -0.46651137 -0.0777519
-0.5053873 0.09718987 -0.05831392 -0.09718987 -1.0690886 0.3110076 -0.97189873 0.1555038

model/dense_1/MatMul i1 [64, 128] scale=0.009953931 zero_point=0
00000000: faf9 effa f4ee f4fa f108 f0f3 01fc 08f8
00000010: effc 0201 03f0 f8ff 0dfe 0a00 fff1 01f8
00000020: f5f7 f4ff 10f8 0701 0001 fbee f2f1 f0fd
00000030: fd06 070d f2f6 f6f4 f7f7 fd01 f608 ed0e
00000040: f3f8 f3fc f8fb fbfd 06ef f6f4 05f7 04ef
00000050: fff5 f9fd f9fb f2fc 0308 eff3 f1f8 eeec
00000060: ed01 0d06 f6ff f4ed 06fa ee04 f0ed 0705
00000070: f6ff f705 f604 f706 01fb fe09 08f4 0c04
00000080: 0d0f f827 1216 0c0d f1fe f104 daa5 02ef
00000090: 0c05 05f8 0bb0 ff01 05fb 0414 1201 141c
000000a0: e2fd fa05 03de dbfb 10d9 10e9 0d04 0f03
000000b0: ddcf e7db 0315 f008 f6bb dd0e 11d1 1210
000000c0: f81f d6e3 ed0a cacc 040f f1fb 08f8 b6f9
000000d0: cdf3 14f9 f20f f80e fb05 fefd 05e0 0bd1
000000e0: bec4 1016 0e0f c5e8 02f5 fe16 f415 b8fd
000000f0: f8fe 0b06 0aed fb16 fcf8 fb0c e405 d321
-0.059723586 -0.06967752 -0.16921683 -0.059723586 -0.11944717 -0.17917076 -0.11944717 -0.059723586
-0.14930896 0.07963145 -0.1592629 -0.1294011 0.009953931 -0.039815724 0.07963145 -0.07963145
-0.16921683 -0.039815724 0.019907862 0.009953931 0.029861793 -0.1592629 -0.07963145 -0.009953931
0.1294011 -0.019907862 0.09953931 0.0 -0.009953931 -0.14930896 0.009953931 -0.07963145
-0.10949324 -0.08958538 -0.11944717 -0.009953931 0.1592629 -0.07963145 0.06967752 0.009953931
0.0 0.009953931 -0.049769655 -0.17917076 -0.13935503 -0.14930896 -0.1592629 -0.029861793
-0.029861793 0.059723586 0.06967752 0.1294011 -0.13935503 -0.09953931 -0.09953931 -0.11944717
-0.08958538 -0.08958538 -0.029861793 0.009953931 -0.09953931 0.07963145 -0.18912469 0.13935503
-0.1294011 -0.07963145 -0.1294011 -0.039815724 -0.07963145 -0.049769655 -0.049769655 -0.029861793
0.059723586 -0.16921683 -0.09953931 -0.11944717 0.049769655 -0.08958538 0.039815724 -0.16921683
-0.009953931 -0.10949324 -0.06967752 -0.029861793 -0.06967752 -0.049769655 -0.13935503 -0.039815724
0.029861793 0.07963145 -0.16921683 -0.1294011 -0.14930896 -0.07963145 -0.17917076 -0.19907862
-0.18912469 0.009953931 0.1294011 0.059723586 -0.09953931 -0.009953931 -0.11944717 -0.18912469
0.059723586 -0.059723586 -0.17917076 0.039815724 -0.1592629 -0.18912469 0.06967752 0.049769655
-0.09953931 -0.009953931 -0.08958538 0.049769655 -0.09953931 0.039815724 -0.08958538 0.059723586
0.009953931 -0.049769655 -0.019907862 0.08958538 0.07963145 -0.11944717 0.11944717 0.039815724
0.1294011 0.14930896 -0.07963145 0.38820332 0.17917076 0.21898648 0.11944717 0.1294011
-0.14930896 -0.019907862 -0.14930896 0.039815724 -0.37824938 -0.90580773 0.019907862 -0.16921683
0.11944717 0.049769655 0.049769655 -0.07963145 0.10949324 -0.7963145 -0.009953931 0.009953931
0.049769655 -0.049769655 0.039815724 0.19907862 0.17917076 0.009953931 0.19907862 0.27871007
-0.29861793 -0.029861793 -0.059723586 0.049769655 0.029861793 -0.33843365 -0.36829543 -0.049769655
0.1592629 -0.38820332 0.1592629 -0.22894041 0.1294011 0.039815724 0.14930896 0.029861793
-0.3483876 -0.4877426 -0.24884827 -0.36829543 0.029861793 0.20903255 -0.1592629 0.07963145
-0.09953931 -0.6868212 -0.3483876 0.13935503 0.16921683 -0.46783477 0.17917076 0.1592629
-0.07963145 0.30857188 -0.4180651 -0.28866398 -0.18912469 0.09953931 -0.5375123 -0.5176044
0.039815724 0.14930896 -0.14930896 -0.049769655 0.07963145 -0.07963145 -0.73659086 -0.06967752
-0.5076505 -0.1294011 0.19907862 -0.06967752 -0.13935503 0.14930896 -0.07963145 0.13935503
-0.049769655 0.049769655 -0.019907862 -0.029861793 0.049769655 -0.3185258 0.10949324 -0.46783477
-0.6569594 -0.59723586 0.1592629 0.21898648 0.13935503 0.14930896 -0.58728194 -0.23889434
0.019907862 -0.10949324 -0.019907862 0.21898648 -0.11944717 0.20903255 -0.71668303 -0.029861793
-0.07963145 -0.019907862 0.10949324 0.059723586 0.09953931 -0.18912469 -0.049769655 0.21898648
-0.039815724 -0.07963145 -0.049769655 0.11944717 -0.27871007 0.049769655 -0.44792688 0.3284797
