Computer_Vision/Tensorflow/models/dtl_swing_classifier_finetuned.tflite (tflite, 26024 bytes, 6 tensors)

model/dense_2/MatMul f4 [10, 64]
0	0xbfb3079f	-1.3986701
1	0x3e65f90c	0.22458285
2	0x3e83b14f	0.25721213
3	0xc0073c94	-2.1130724
4	0xbfc333c3	-1.5250171
5	0xbd3d261f	-0.046178933
6	0x3dd952f9	0.10611529
7	0x3ed7b54d	0.4213051
8	0xbfd9ab56	-1.7005413
9	0xbf8f5250	-1.1196995
10	0xc015a12c	-2.3379622
11	0xbdbdca15	-0.0926706
12	0x3e89b337	0.26894543
13	0xbe46e1b6	-0.1942204
14	0x3d96347b	0.073342286
15	0xbf5aa682	-0.8541032
16	0x3eb8ea61	0.36116317
17	0xbf76fe88	-0.96482134
18	0xbfae8dbb	-1.3637003
19	0x3dbbd7d7	0.091720276
20	0xbfaf41da	-1.3691971
21	0x3e744469	0.23854221
22	0x3db783fc	0.08960721
23	0x3e62e588	0.22157872
24	0x3e154c0f	0.14579795
25	0x3c6a8fbb	0.014316495
26	0x3e42fe8c	0.19042414
27	0xbf0f8db6	-0.5607561
28	0xc0100911	-2.2505534
29	0x3e062ee1	0.1310382
30	0x3e478639	0.19484796
31	0xbead46f4	-0.33843195
32	0xbeb14bec	-0.34628236
33	0xbf10cd1a	-0.5656296
34	0xbd08616b	-0.03329603
35	0x3e56b8bd	0.2096891
36	0xbffa1de0	-1.9540367
37	0xbf4c6e05	-0.79855376
38	0x3e473c65	0.19456632
39	0x3f4dcd6a	0.8039156
40	0xc063f1cd	-3.5616333
41	0x3e1cc26b	0.1530854
42	0x3f3a2f9c	0.72728896
43	0xc0158aa1	-2.3365862
44	0x3ea12ab7	0.314779
45	0xc022fbfe	-2.5466304
46	0x3e55ddd1	0.20885397
47	0xc02d0045	-2.7031415
48	0x3edf5eee	0.43627113
49	0x3e164d4e	0.14677927
50	0x3e6675b3	0.22505836
51	0xc0087fa7	-2.1327913
52	0x3eb54a2c	0.3540815
53	0xbdaef9bb	-0.08543726
54	0x3de0b17c	0.109713525
55	0xbe8eb75b	-0.27874264
56	0xbf2f1e2e	-0.68405426
57	0x3eb9fa89	0.36323956
58	0xbd8d340f	-0.06894695
59	0x3ea9a812	0.3313604
60	0x3e0828ee	0.13296863
61	0xbdb6d832	-0.08927955
62	0xbef7c75b	-0.48394284
63	0xbe9df5a3	-0.30851468
64	0x3e11ece1	0.14250518
65	0xc00d8bda	-2.2116609
66	0x3e9af4e5	0.30264965
67	0xbcf84d2e	-0.03031024
68	0xbf1900db	-0.5976693
69	0x3f48595a	0.7826134
70	0x3e0adcf9	0.13560857
71	0xbe07e3cf	-0.13270496
72	0xbf396a15	-0.72427493
73	0x3e5dfbe6	0.21678123
74	0xbe525ff8	-0.20544422
75	0x3eed7a01	0.46382144
76	0xbfb64001	-1.4238282
77	0x3ee34f5d	0.44396487
78	0xbfc9f994	-1.577929
79	0x3d85b6dd	0.06529019
80	0xbf850292	-1.0391409
81	0x3e638e4b	0.22222249
82	0x3ddc1fb0	0.107482314
83	0xbf84641c	-1.0343051
84	0x3db91b17	0.0903837
85	0xbfbd046d	-1.4766976
86	0x3e6c78fe	0.2309303
87	0xbe9a4cec	-0.30136812
88	0xbfd3c1c9	-1.6543514
89	0x3e8a5dbc	0.2702464
90	0x3f9fb0ab	1.247579
91	0x3ec98f3f	0.393671
92	0x3e5c5f23	0.21520667
93	0xc0283d2e	-2.628734
94	0xbcd8c67b	-0.02646183
95	0x3e5f305c	0.21795791
96	0x3ea24aea	0.3169778
97	0x3e056d57	0.13029991
98	0xbe53a213	-0.20667295
99	0xbf99fcfc	-1.203033
100	0xbec68c95	-0.3877913
101	0x3ea6f774	0.32610667
102	0xc002a219	-2.0411437
103	0xbedc9866	-0.4308502
104	0x3dc92fc2	0.09823562
105	0xc01ed521	-2.4817584
106	0xbf0152aa	-0.5051676
107	0x3e17f2bf	0.14838694
108	0xbf3ee208	-0.74563646
109	0x3d861c80	0.06548405
110	0x3f896654	1.0734353
111	0x3dcf74e0	0.10129714
112	0xbf8ac04f	-1.0839938
113	0x3f507e10	0.81442356
114	0xbfd0da71	-1.6316663
115	0xbea1091f	-0.3145227
116	0x3e5dfadf	0.21677731
117	0x3f3142ca	0.6924254
118	0xc02242b6	-2.5353217
119	0x3e18326d	0.14862986
120	0xbfa15f50	-1.2607212
121	0xbfbcd19e	-1.475147
122	0x3dd720b6	0.10504286
123	0xbf98317d	-1.1890103
124	0xbffbc59c	-1.966968
125	0x3e00a59f	0.1256318
126	0xbf4886a5	-0.7833045
127	0x3f953294	1.165606
128	0xbf3d52df	-0.73954576
129	0x3e2a16b0	0.16610217
130	0xbd75f32e	-0.060046367
131	0x3eab2a17	0.3343055
132	0x3e7b1749	0.24520601
133	0xbefcbb3e	-0.49361604
134	0xbf5eb80b	-0.8699958
135	0x3d3920df	0.045197364
136	0x3ecffee2	0.40624148
137	0xbfe40c1d	-1.7816197
138	0x3cb62393	0.02223376
139	0xbea5079e	-0.32232374
140	0x3e679c63	0.2261825
141	0xbee18fb4	-0.4405495
142	0x3e3dc171	0.18530823
143	0xbf93e3c1	-1.155388
144	0x3eb07622	0.34465128
145	0xbfbe266d	-1.4855477
146	0xbf85b120	-1.0444679
147	0x3ef9e942	0.48810774
148	0xbf9c1cf2	-1.2196333
149	0x3e8825ca	0.2659133
150	0xbea62528	-0.32450223
151	0xbea17b70	-0.31539488
152	0x3e102a52	0.14078644
153	0xbeb00cde	-0.34384817
154	0xbdb398d9	-0.08769388
155	0xbecd8b74	-0.40145457
156	0xbfe7b89d	-1.8103215
157	0x3e2029fe	0.15641019
158	0xbee2e42e	-0.44314712
159	0xbf5356bb	-0.82554215
160	0xbea35e5f	-0.31907937
161	0xbf6f2db1	-0.93429095
162	0xbddf4304	-0.10901454
163	0x3d57437a	0.052554585
164	0x3def06de	0.11671232
165	0xbf1f748a	-0.622872
166	0x3e417a2f	0.18894266
167	0x3f12b83b	0.57312363
168	0xbf55c4b3	-0.83503264
169	0x3e178c13	0.14799528
170	0x3ed228d7	0.41046783
171	0xbfe9b042	-1.8256915
172	0xbc8e4c12	-0.017370258
173	0xc002649c	-2.0373907
174	0xbc579a1b	-0.0131593
175	0xbfc69d69	-1.5516788
176	0x3e812ad3	0.25227985
177	0xbdadc710	-0.08485234
178	0x3e6801e5	0.22656973
179	0x3db054d9	0.086099334
180	0xbd0160fd	-0.031586636
181	0xbeaeb9a2	-0.34126002
182	0x3dc0a509	0.09406478
183	0xbf1f321e	-0.6218585
184	0x3f14135f	0.5784206
185	0x3eac6cfb	0.33676895
186	0xbe8a06f2	-0.26958424
187	0x3e98db00	0.29854584
188	0x3e0960cf	0.13415836
189	0xbec1a73d	-0.37822905
190	0x3f0bc232	0.54593194
191	0xbc47f303	-0.012203935
192	0xbffb797a	-1.9646447
193	0x3e2cbf92	0.16869953
194	0xc0045ef5	-2.0682957
195	0x3e93de05	0.28880325
196	0x3e67687c	0.22598451
197	0xbed69129	-0.41907623
198	0xbf5118ea	-0.8167864
199	0xbfc4415d	-1.5332447
200	0x3eacf501	0.33780673
201	0xbf7ded9f	-0.99190706
202	0x3da149f2	0.07875432
203	0xbf9a7fca	-1.2070248
204	0x3e35ba6d	0.17746897
205	0xbf988463	-1.1915401
206	0x3de4c54c	0.11170444
207	0x3e6ec365	0.23316725
208	0x3e7d3925	0.2472883
209	0xbfb0475f	-1.3771781
210	0x3dc5464b	0.09632548
211	0x3edf4ff9	0.43615702
212	0x3e4c26e1	0.19936706
213	0x3e71f4f8	0.23628604
214	0xbf412f76	-0.75463045
215	0xbf1bb53d	-0.6082342
216	0x3d84104e	0.06448422
217	0xc02c1232	-2.6886106
218	0xbeb0e886	-0.345524
219	0xbfb60d74	-1.4222856
220	0x3e09848d	0.1342947
221	0x3df3b00c	0.11898813
222	0xbfbe1fe7	-1.4853486
223	0xc03dbd30	-2.964672
224	0xbf9815a8	-1.1881609
225	0xbfa40ee3	-1.2817043
226	0xbc6a56df	-0.014302938
227	0xbf0b326f	-0.5437383
228	0x3e149e5a	0.14513531
229	0xc0517420	-3.2727127
230	0x3dfb8d5d	0.12282822
231	0xbf98cdfa	-1.1937859
232	0x3e070d5c	0.1318869
233	0x3dad06d3	0.08448567
234	0xbfe7133d	-1.8052746
235	0xbc13d637	-0.009023241
236	0xbf9fb291	-1.2476369
237	0xbdceea4f	-0.101032846
238	0xbf5cd3de	-0.86260784
239	0x3d37b098	0.044846147
240	0xbf19e58f	-0.60115904
241	0xbf03a2df	-0.51420397
242	0x3e209f74	0.15685827
243	0x3dce4e25	0.10073499
244	0xbfb15126	-1.385289
245	0xbfb6401b	-1.4238313
246	0x3da68d81	0.081324585
247	0xbf121d2d	-0.5707577
248	0x3ea406db	0.3203648
249	0x3e6396f0	0.22225547
250	0xc014ba24	-2.3238611
251	0x3e833324	0.25624955
252	0x3d2adc86	0.041714214
253	0xbfd3b54c	-1.6539702
254	0x3e0bc736	0.13650212
255	0xbceca11d	-0.028885419

model/dense_2/BiasAdd/ReadVariableOp/resource f4 [10]
0	0x3ec224e2	0.37918764
1	0xbe63e454	-0.22255069
2	0xbed34494	-0.41263258
3	0x3eb50d9c	0.35361946
4	0x3e205a55	0.15659459
5	0xbe7d13df	-0.24714611
6	0x3ed145f7	0.4087369
7	0x3e704a45	0.23465832
8	0xbe7d9e8e	-0.24767515
9	0xbebffbef	-0.37496898

model/dense_1/BiasAdd/ReadVariableOp/resource f4 [64]
0	0xbde47764	-0.111555845
1	0x3edb8618	0.42875743
2	0x3dcb2533	0.099192046
3	0x3e7d9dd2	0.24767235
4	0x3eb21bd7	0.34786865
5	0x3e66af00	0.22527695
6	0xbd59cd09	-0.053174052
7	0xbda96e19	-0.082729526
8	0x3e3527d4	0.17690974
9	0xbd98d85f	-0.074631445
10	0x3e63cfed	0.22247286
11	0xbd3818b8	-0.04494545
12	0x3eed5188	0.46351266
13	0x3d61dfc5	0.055145044
14	0x3e92de3a	0.2868517
15	0x3e37eec3	0.17962174
16	0x3eb1447b	0.3462256
17	0xbc94770d	-0.018123174
18	0x3e0a1144	0.13483149
19	0x3df4e982	0.119586006
20	0x3e3536c7	0.17696677
21	0x3ef486aa	0.4775899
22	0xbc5381c5	-0.012909357
23	0xbd1c537e	-0.03816556
24	0x3e1d9a64	0.15390927
25	0x3e27f450	0.16401792
26	0x3e391196	0.18073115
27	0xbcdc0ca1	-0.02686149
28	0xbc132f1a	-0.008983398
29	0x3d4f03a1	0.05054057
30	0x3e838a72	0.25691563
31	0x3e1094b7	0.1411923
32	0xbb161692	-0.0022901637
33	0xbdbae9a9	-0.091265984
34	0xbddf6351	-0.10907615
35	0xbe2abb7e	-0.16673085
36	0x3e9f5d52	0.31125885
37	0x3c4caa15	0.012491723
38	0x3f0e2978	0.55532026
39	0x3d863501	0.065530784
40	0x3d829101	0.063753136
41	0xbc24c48f	-0.010056629
42	0x3e5017fc	0.2032165
43	0x3ceb505d	0.028724844
44	0x3e58d953	0.21176653
45	0xbc30d79c	-0.010793593
46	0x3df58884	0.11988929
47	0x3cc36626	0.02385242
48	0x3d2d91a7	0.042375233
49	0x3dfb82e5	0.122808255
50	0x3d4561f3	0.048189115
51	0x3eab06dd	0.33403674
52	0xbda2238a	-0.07916935
53	0x3dedf848	0.116196215
54	0xbc1e19a1	-0.009649665
55	0xbe0edfef	-0.13952611
56	0x3e3f876c	0.18704003
57	0x3df1c191	0.11804498
58	0x3e41f051	0.1893933
59	0x3f0f4934	0.55971074
60	0x3e9c0c1d	0.30477992
61	0x3e339251	0.17536284
62	0x3e0b89de	0.13626811
63	0x3e68cf41	0.22735311

model/dense/BiasAdd/ReadVariableOp/resource f4 [128]
0	0xbc0f4d0e	-0.008746399
1	0xbbb22135	-0.0054360875
2	0x3b4808f6	0.003052292
3	0xbb4d6afd	-0.0031344288
4	0xbc115f10	-0.008872762
5	0x3d5e84d7	0.054325905
6	0x3c837e73	0.016051507
7	0xbd8cf5bf	-0.0688281
8	0x3ce070c7	0.027397526
9	0xbbbc201d	-0.005741133
10	0x3d76d0bc	0.06025766
11	0x3c5814f7	0.013188592
12	0xbcff88d4	-0.031193174
13	0xbbab19ca	-0.00522158
14	0xbba1bbfc	-0.0049357396
15	0x3a1d43cb	0.00059991766
16	0x3e16a8fe	0.14712903
17	0xbc2f6754	-0.010705788
18	0x3c543c57	0.012953839
19	0x3d407741	0.04698873
20	0x3d4ce7c0	0.0500257
21	0x00000000	0.0
22	0x00000000	0.0
23	0x3c53df50	0.01293166
24	0x3aa088d1	0.0012247806
25	0xbb897b59	-0.0041956124
26	0x3c1c1169	0.009525635
27	0x3bb2dc65	0.005458402
28	0xbba91735	-0.005160237
29	0xbbff356e	-0.0077883517
30	0x00000000	0.0
31	0xbd275927	-0.040856507
32	0xbb85ac46	-0.0040793745
33	0xb9aa4473	-0.00032475925
34	0x00000000	0.0
35	0xbbac9e38	-0.0052678846
36	0xbc0e6910	-0.008692041
37	0x3c92cfcd	0.017921353
38	0xbccda4c9	-0.02510299
39	0xbba23c69	-0.004951049
40	0x00000000	0.0
41	0x3d26df1c	0.040740117
42	0x00000000	0.0
43	0xbd468638	-0.048467845
44	0xbd891ad5	-0.06694571
45	0xbd3185c4	-0.04334046
46	0xbd4d75b7	-0.05016109
47	0x3d1ec6a6	0.038763665
48	0x3d085513	0.033284258
49	0xbbd849a5	-0.006600576
50	0x00000000	0.0
51	0x3c739422	0.014866861
52	0x3d28642c	0.041111156
53	0xbcb76035	-0.022384742
54	0x3dea2f4f	0.11434805
55	0x3d53079d	0.051520932
56	0x3ae8c33e	0.0017758382
57	0x3d88279a	0.066481784
58	0xbc285258	-0.0102735385
59	0x3c1a6956	0.009424528
60	0x3ddca303	0.107732795
61	0x3d165a8a	0.03670744
62	0xbd8d2185	-0.06891159
63	0x00000000	0.0
64	0xbc83f1f9	-0.016106592
65	0x3cc3a503	0.023882395
66	0x3d45a3b1	0.04825181
67	0xbc587360	-0.013211101
68	0xbc6d1d55	-0.014472325
69	0x3d3fcac6	0.04682424
70	0xbbc4c664	-0.0060050953
71	0x3b34f64c	0.0027612625
72	0x3cc6cd46	0.024267804
73	0x3d7ea565	0.06216945
74	0x3d051330	0.032489
75	0x3ddf4e3f	0.10903596
76	0xbd031407	-0.03200152
77	0xbdade068	-0.08490068
78	0xbc2ca932	-0.010538386
79	0x3cd46c06	0.025930416
80	0xbdfe86c9	-0.12428052
81	0xbc9496a9	-0.018138247
82	0x3d197c0c	0.037471816
83	0x3e146d3c	0.14494795
84	0x00000000	0.0
85	0xbc7ac0e9	-0.015304782
86	0x00000000	0.0
87	0x00000000	0.0
88	0xbbc60b8b	-0.0060438565
89	0x3e0c8527	0.13722669
90	0xbae5b1f1	-0.0017524344
91	0x3d550106	0.05200293
92	0x3d66c33f	0.056338545
93	0x00000000	0.0
94	0xbc87cf16	-0.016578238
95	0x3bbdeaf0	0.005795829
96	0x3c08d8e1	0.008352489
97	0x3de4d9ad	0.11174331
98	0xbbeacecc	-0.0071657654
99	0x3b8e5260	0.004343316
100	0xbbec0df8	-0.0072038136
101	0x3d376b59	0.04478011
102	0x3b2d9786	0.002648802
103	0xbdc5878d	-0.09644995
104	0x3be15b7f	0.0068773623
105	0xbd4585f9	-0.04822347
106	0x3cfd0feb	0.03089138
107	0xbb534aaa	-0.0032240548
108	0xbd0e6554	-0.034764603
109	0x3d394963	0.045236003
110	0x3d5f7663	0.05455626
111	0xbb0418ba	-0.002015634
112	0x00000000	0.0
113	0x3d2922b9	0.04129288
114	0x3baf7c8d	0.005355424
115	0xbcc6c279	-0.024262654
116	0x3c9b7032	0.018974397
117	0x3b52e534	0.0032180073
118	0x3d8bf951	0.06834663
119	0x3d280766	0.04102268
120	0x3d42c040	0.047546625
121	0xbcb5eb37	-0.022206886
122	0x3cd446a6	0.025912594
123	0x3dd6ea09	0.104938574
124	0x3b83b9a3	0.0040199324
125	0xbba2d100	-0.0049687624
126	0x3d1cffb5	0.0383298
127	0xbc7681c9	-0.015045592

model/dense/MatMul i1 [128, 34] scale=0.016473131 zero_point=0
0	0x0a	0.16473131
1	0x06	0.09883879
2	0xfa	-0.09883879
3	0x08	0.13178505
4	0xfd	-0.049419396
5	0xfc	-0.065892525
6	0x05	0.082365654
7	0xfe	-0.032946263
8	0xf7	-0.14825818
9	0x00	0.0
10	0xf6	-0.16473131
11	0xfb	-0.082365654
12	0x08	0.13178505
13	0x07	0.11531192
14	0xf5	-0.18120444
15	0x0c	0.19767758
16	0x04	0.065892525
17	0xf9	-0.11531192
18	0xff	-0.016473131
19	0x05	0.082365654
20	0x07	0.11531192
21	0x03	0.049419396
22	0x00	0.0
23	0xfc	-0.065892525
24	0xfa	-0.09883879
25	0x05	0.082365654
26	0x09	0.14825818
27	0x02	0.032946263
28	0xf7	-0.14825818
29	0xf8	-0.13178505
30	0x00	0.0
31	0x08	0.13178505
32	0x06	0.09883879
33	0xfa	-0.09883879
34	0xf7	-0.14825818
35	0xf5	-0.18120444
36	0xf8	-0.13178505
37	0x02	0.032946263
38	0x00	0.0
39	0xf3	-0.21415071
40	0xeb	-0.34593576
41	0xf7	-0.14825818
42	0x0d	0.21415071
43	0x08	0.13178505
44	0x15	0.34593576
45	0x12	0.29651636
46	0xea	-0.36240888
47	0x0a	0.16473131
48	0x1f	0.5106671
49	0x06	0.09883879
50	0xfd	-0.049419396
51	0xec	-0.32946262
52	0x0f	0.24709697
53	0xcf	-0.80718344
54	0x1b	0.44477454
55	0xc8	-0.92249537
56	0x32	0.82365656
57	0x08	0.13178505
58	0xdb	-0.60950583
59	0xf0	-0.2635701
60	0x08	0.13178505
61	0xfb	-0.082365654
62	0x13	0.3129895
63	0xf2	-0.23062384
64	0xd1	-0.77423716
65	0xf5	-0.18120444
66	0x23	0.5765596
67	0x02	0.032946263
68	0xfc	-0.065892525
69	0x05	0.082365654
70	0xfd	-0.049419396
71	0xef	-0.28004324
72	0xfb	-0.082365654
73	0xfa	-0.09883879
74	0x05	0.082365654
75	0xf3	-0.21415071
76	0xfd	-0.049419396
77	0xea	-0.36240888
78	0xf0	-0.2635701
79	0xee	-0.29651636
80	0x12	0.29651636
81	0xf6	-0.16473131
82	0xed	-0.3129895
83	0xf6	-0.16473131
84	0x28	0.65892524
85	0x0c	0.19767758
86	0xef	-0.28004324
87	0x18	0.39535517
88	0x06	0.09883879
89	0x23	0.5765596
90	0x10	0.2635701
91	0x15	0.34593576
92	0xf4	-0.19767758
93	0xed	-0.3129895
94	0x23	0.5765596
95	0xfb	-0.082365654
96	0xc8	-0.92249537
97	0x0f	0.24709697
98	0x69	1.7296788
99	0xfe	-0.032946263
100	0xa0	-1.5814207
101	0x04	0.065892525
102	0x08	0.13178505
103	0x0f	0.24709697
104	0x06	0.09883879
105	0xfd	-0.049419396
106	0xff	-0.016473131
107	0x0e	0.23062384
108	0xfc	-0.065892525
109	0xfc	-0.065892525
110	0x06	0.09883879
111	0x00	0.0
112	0xf3	-0.21415071
113	0x06	0.09883879
114	0x0a	0.16473131
115	0xff	-0.016473131
116	0xf8	-0.13178505
117	0xef	-0.28004324
118	0xfe	-0.032946263
119	0xea	-0.36240888
120	0xee	-0.29651636
121	0xcf	-0.80718344
122	0xf5	-0.18120444
123	0xe1	-0.5106671
124	0xcd	-0.8401297
125	0xe5	-0.44477454
126	0x2b	0.70834464
127	0x29	0.6753984
128	0xbc	-1.120173
129	0x0b	0.18120444
130	0x2c	0.72481775
131	0xff	-0.016473131
132	0xad	-1.3672699
133	0x06	0.09883879
134	0x33	0.8401297
135	0x07	0.11531192
136	0x02	0.032946263
137	0xf6	-0.16473131
138	0x07	0.11531192
139	0xfc	-0.065892525
140	0xff	-0.016473131
141	0x08	0.13178505
142	0x09	0.14825818
143	0xf5	-0.18120444
144	0x04	0.065892525
145	0x00	0.0
146	0xf4	-0.19767758
147	0xdf	-0.5436133
148	0xfe	-0.032946263
149	0x04	0.065892525
150	0x11	0.28004324
151	0x01	0.016473131
152	0x1d	0.4777208
153	0x1b	0.44477454
154	0x13	0.3129895
155	0x1c	0.46124768
156	0x12	0.29651636
157	0x0d	0.21415071
158	0xfd	-0.049419396
159	0xca	-0.8895491
160	0x04	0.065892525
161	0x39	0.9389685
162	0x02	0.032946263
163	0x10	0.2635701
164	0xcc	-0.85660285
165	0x0e	0.23062384
166	0x69	1.7296788
167	0x09	0.14825818
168	0xed	-0.3129895
169	0x01	0.016473131
170	0xfe	-0.032946263
171	0x05	0.082365654
172	0xf5	-0.18120444
173	0x03	0.049419396
174	0x09	0.14825818
175	0x02	0.032946263
176	0xf8	-0.13178505
177	0x01	0.016473131
178	0x0e	0.23062384
179	0x14	0.32946262
180	0xe2	-0.49419394
181	0x03	0.049419396
182	0x15	0.34593576
183	0xf2	-0.23062384
184	0xff	-0.016473131
185	0xf7	-0.14825818
186	0x00	0.0
187	0xfd	-0.049419396
188	0x03	0.049419396
189	0xe8	-0.39535517
190	0xfc	-0.065892525
191	0xee	-0.29651636
192	0xa3	-1.5320013
193	0xf5	-0.18120444
194	0x59	1.4661087
195	0xf7	-0.14825818
196	0xc9	-0.9060222
197	0x06	0.09883879
198	0x45	1.136646
199	0xf4	-0.19767758
200	0xc4	-0.9883879
201	0xfd	-0.049419396
202	0x2d	0.7412909
203	0x04	0.065892525
204	0xfb	-0.082365654
205	0x07	0.11531192
206	0x00	0.0
207	0xfe	-0.032946263
208	0x0f	0.24709697
209	0x04	0.065892525
210	0xfb	-0.082365654
211	0x06	0.09883879
212	0x02	0.032946263
213	0x06	0.09883879
214	0x07	0.11531192
215	0x03	0.049419396
216	0xf1	-0.24709697
217	0x00	0.0
218	0xf3	-0.21415071
219	0x04	0.065892525
220	0xef	-0.28004324
221	0xda	-0.625979
222	0xe5	-0.44477454
223	0xcb	-0.87307596
224	0xe8	-0.39535517
225	0xbb	-1.136646
226	0x09	0.14825818
227	0xf9	-0.11531192
228	0xf0	-0.2635701
229	0x01	0.016473131
230	0xd3	-0.7412909
231	0xf5	-0.18120444
232	0x01	0.016473131
233	0x04	0.065892525
234	0xcf	-0.80718344
235	0xf8	-0.13178505
236	0x13	0.3129895
237	0x06	0.09883879
238	0x03	0.049419396
239	0xf6	-0.16473131
240	0xfd	-0.049419396
241	0xfa	-0.09883879
242	0x01	0.016473131
243	0xfb	-0.082365654
244	0x00	0.0
245	0xef	-0.28004324
246	0xfa	-0.09883879
247	0xf7	-0.14825818
248	0x12	0.29651636
249	0xf8	-0.13178505
250	0xf2	-0.23062384
251	0x04	0.065892525
252	0xfb	-0.082365654
253	0xff	-0.016473131
254	0x0c	0.19767758
255	0xff	-0.016473131

model/dense_1/MatMul i1 [64, 128] scale=0.01620218 zero_point=0
0	0x02	0.03240436
1	0x0c	0.19442615
2	0xfa	-0.097213075
3	0x1d	0.4698632
4	0xfe	-0.03240436
5	0x38	0.90732205
6	0x12	0.29163924
7	0xd1	-0.76150244
8	0x08	0.12961744
9	0x03	0.048606537
10	0x17	0.37265015
11	0x14	0.3240436
12	0xf0	-0.25923488
13	0x02	0.03240436
14	0xfc	-0.06480872
15	0xf8	-0.12961744
16	0xff	-0.01620218
17	0x16	0.35644796
18	0x0b	0.17822398
19	0x02	0.03240436
20	0x25	0.5994806
21	0xfe	-0.03240436
22	0xfc	-0.06480872
23	0x09	0.14581962
24	0x02	0.03240436
25	0xff	-0.01620218
26	0x00	0.0
27	0x02	0.03240436
28	0x05	0.0810109
29	0xfb	-0.0810109
30	0x07	0.113415256
31	0x09	0.14581962
32	0x01	0.01620218
33	0x0e	0.22683051
34	0xff	-0.01620218
35	0x00	0.0
36	0xfb	-0.0810109
37	0x13	0.30784142
38	0xee	-0.29163924
39	0xfb	-0.0810109
40	0x06	0.097213075
41	0x0e	0.22683051
42	0x01	0.01620218
43	0xf4	-0.19442615
44	0x00	0.0
45	0x01	0.01620218
46	0x06	0.097213075
47	0x2c	0.71289593
48	0x17	0.37265015
49	0xfa	-0.097213075
50	0xf8	-0.12961744
51	0x1a	0.42125666
52	0x21	0.5346719
53	0xf1	-0.2430327
54	0xfa	-0.097213075
55	0x13	0.30784142
56	0x0b	0.17822398
57	0xf9	-0.113415256
58	0x05	0.0810109
59	0x18	0.3888523
60	0xf8	-0.12961744
61	0x1e	0.4860654
62	0xcd	-0.8263112
63	0x00	0.0
64	0x05	0.0810109
65	0x1f	0.5022676
66	0x12	0.29163924
67	0x02	0.03240436
68	0x02	0.03240436
69	0xef	-0.27543706
70	0x01	0.01620218
71	0x0c	0.19442615
72	0x09	0.14581962
73	0x1d	0.4698632
74	0x00	0.0
75	0x04	0.06480872
76	0xe8	-0.3888523
77	0xef	-0.27543706
78	0xfb	-0.0810109
79	0xff	-0.01620218
80	0x05	0.0810109
81	0x00	0.0
82	0xf9	-0.113415256
83	0xfe	-0.03240436
84	0x07	0.113415256
85	0xfd	-0.048606537
86	0xfe	-0.03240436
87	0x01	0.01620218
88	0xfe	-0.03240436
89	0x03	0.048606537
90	0x0c	0.19442615
91	0x2e	0.7453003
92	0x18	0.3888523
93	0x01	0.01620218
94	0x05	0.0810109
95	0x07	0.113415256
96	0x08	0.12961744
97	0x14	0.3240436
98	0xff	-0.01620218
99	0xff	-0.01620218
100	0x06	0.097213075
101	0x0a	0.1620218
102	0x06	0.097213075
103	0xf7	-0.14581962
104	0x06	0.097213075
105	0xfc	-0.06480872
106	0x18	0.3888523
107	0xfb	-0.0810109
108	0x02	0.03240436
109	0x27	0.631885
110	0x20	0.51846975
111	0x15	0.34024578
112	0x01	0.01620218
113	0xf9	-0.113415256
114	0x0e	0.22683051
115	0xda	-0.61568284
116	0x0a	0.1620218
117	0x1c	0.45366102
118	0x1e	0.4860654
119	0x2d	0.7290981
120	0x12	0.29163924
121	0xf8	-0.12961744
122	0x1f	0.5022676
123	0xf6	-0.1620218
124	0xfd	-0.048606537
125	0xf9	-0.113415256
126	0x28	0.6480872
127	0xf4	-0.19442615
128	0x02	0.03240436
129	0xec	-0.3240436
130	0x07	0.113415256
131	0xf0	-0.25923488
132	0x0f	0.2430327
133	0xf7	-0.14581962
134	0xf3	-0.21062833
135	0xf1	-0.2430327
136	0xfe	-0.03240436
137	0x03	0.048606537
138	0xfe	-0.03240436
139	0xf5	-0.17822398
140	0x04	0.06480872
141	0x18	0.3888523
142	0x07	0.113415256
143	0xfb	-0.0810109
144	0x62	1.5878136
145	0xf6	-0.1620218
146	0xf3	-0.21062833
147	0xf4	-0.19442615
148	0xf9	-0.113415256
149	0x04	0.06480872
150	0x06	0.097213075
151	0x14	0.3240436
152	0x1f	0.5022676
153	0xf9	-0.113415256
154	0x0d	0.21062833
155	0xf4	-0.19442615
156	0xfe	-0.03240436
157	0x05	0.0810109
158	0xfe	-0.03240436
159	0x04	0.06480872
160	0x02	0.03240436
161	0xf3	-0.21062833
162	0xfe	-0.03240436
163	0x09	0.14581962
164	0xfc	-0.06480872
165	0xf1	-0.2430327
166	0x06	0.097213075
167	0x04	0.06480872
168	0xf8	-0.12961744
169	0x10	0.25923488
170	0x08	0.12961744
171	0xe9	-0.37265015
172	0x02	0.03240436
173	0x0b	0.17822398
174	0x03	0.048606537
175	0xfa	-0.097213075
176	0xfd	-0.048606537
177	0xfa	-0.097213075
178	0x04	0.06480872
179	0xf2	-0.22683051
180	0x00	0.0
181	0x09	0.14581962
182	0x58	1.4257919
183	0x07	0.113415256
184	0xf1	-0.2430327
185	0x13	0.30784142
186	0xf5	-0.17822398
187	0xf5	-0.17822398
188	0x20	0.51846975
189	0xfc	-0.06480872
190	0xf0	-0.25923488
191	0x02	0.03240436
192	0xfa	-0.097213075
193	0xf8	-0.12961744
194	0x0a	0.1620218
195	0xf7	-0.14581962
196	0xf8	-0.12961744
197	0x62	1.5878136
198	0x0a	0.1620218
199	0xf8	-0.12961744
200	0xf3	-0.21062833
201	0xfe	-0.03240436
202	0xec	-0.3240436
203	0x5a	1.4581962
204	0x07	0.113415256
205	0xe0	-0.51846975
206	0x04	0.06480872
207	0xf3	-0.21062833
208	0x0f	0.2430327
209	0x03	0.048606537
210	0x15	0.34024578
211	0x48	1.166557
212	0x08	0.12961744
213	0xfc	-0.06480872
214	0xfe	-0.03240436
215	0xf7	-0.14581962
216	0xf1	-0.2430327
217	0x47	1.1503547
218	0xfa	-0.097213075
219	0xf9	-0.113415256
220	0x0d	0.21062833
221	0xfe	-0.03240436
222	0xfe	-0.03240436
223	0xf1	-0.2430327
224	0xff	-0.01620218
225	0xfe	-0.03240436
226	0xf7	-0.14581962
227	0x0c	0.19442615
228	0x01	0.01620218
229	0x04	0.06480872
230	0xf4	-0.19442615
231	0xe1	-0.5022676
232	0xf7	-0.14581962
233	0x07	0.113415256
234	0xfa	-0.097213075
235	0x09	0.14581962
236	0xfd	-0.048606537
237	0xf9	-0.113415256
238	0xfc	-0.06480872
239	0xf8	-0.12961744
240	0x00	0.0
241	0xe6	-0.42125666
242	0xf6	-0.1620218
243	0x03	0.048606537
244	0xf7	-0.14581962
245	0xfd	-0.048606537
246	0xf1	-0.2430327
247	0x05	0.0810109
248	0xfb	-0.0810109
249	0xfa	-0.097213075
250	0xfe	-0.03240436
251	0x18	0.3888523
252	0xfc	-0.06480872
253	0x06	0.097213075
254	0xf8	-0.12961744
255	0xfd	-0.048606537
