Computer_Vision/Tensorflow/models/front_swing_classifier.tflite (tflite, 25536 bytes, 6 tensors)

arith.constant f4 [128]
0	0x00000000	0.0
1	0xbc4b4ea0	-0.012408882
2	0x00000000	0.0
3	0xbcd6244b	-0.026140353
4	0xbc2a42a2	-0.010391863
5	0xbdbfd1e7	-0.093662076
6	0xbdffe0fa	-0.12494083
7	0x00000000	0.0
8	0x00000000	0.0
9	0xbd71cde1	-0.059034232
10	0xbbafcff9	-0.0053653684
11	0xbcba8695	-0.022769252
12	0xbc71b98f	-0.014753713
13	0xbc25b0a8	-0.010112919
14	0x3d5d17a9	0.053977642
15	0x3d11f5e4	0.03563489
16	0xbdc21365	-0.094763555
17	0x3e1448a6	0.14480838
18	0xbc5507e4	-0.01300237
19	0x3d23f7c4	0.04003121
20	0x00000000	0.0
21	0xbd5349bd	-0.051583994
22	0xbcbcec77	-0.023061974
23	0x3d67bd64	0.0565771
24	0xbdb56c8c	-0.08858594
25	0xbd6705a7	-0.056401875
26	0xbcbb9486	-0.02289797
27	0xbd130bd5	-0.035899956
28	0xbd94c71e	-0.07264541
29	0xbd0dbf90	-0.034606516
30	0xbdf21b98	-0.11821669
31	0xbe08a1bb	-0.13342945
32	0xbc280457	-0.010254941
33	0xbde9f4ef	-0.114236705
34	0xbd907e5c	-0.07055351
35	0xbd894713	-0.067030095
36	0x00000000	0.0
37	0xbded0a20	-0.11574197
38	0xbbbbc5db	-0.0057303733
39	0xbbd06b26	-0.0063604293
40	0xbae77d52	-0.001766125
41	0x00000000	0.0
42	0x3c142018	0.009040855
43	0xbd228f4c	-0.03968744
44	0xbca14947	-0.019688262
45	0xbda705d3	-0.08155408
46	0xbe2740b2	-0.16333273
47	0xbd95fd20	-0.073236704
48	0xbb3e8eb4	-0.0029076757
49	0xbbe4a606	-0.0069777993
50	0x3cb8a0b0	0.02253756
51	0xbdc3e5dc	-0.095653266
52	0xbc5ca1f0	-0.013466343
53	0xbbfde76e	-0.007748536
54	0xbdd51ac5	-0.104054965
55	0xbd910add	-0.0708215
56	0xbcc3d255	-0.023904005
57	0xbdf6551a	-0.120279506
58	0x3d1c9f49	0.038237844
59	0xbdf83cb7	-0.121209554
60	0xbe057dbe	-0.13036248
61	0xbdae1275	-0.08499614
62	0xbc1032f6	-0.0088012125
63	0x00000000	0.0
64	0xbc9e062b	-0.01929005
65	0xbda97c9f	-0.08275723
66	0x3e659386	0.22419557
67	0x3cf0a234	0.02937422
68	0xbc0a5579	-0.00844323
69	0xbd905a1f	-0.07048439
70	0x3ce02032	0.027359102
71	0xbdda778d	-0.10667334
72	0x3d073f9f	0.03301966
73	0x00000000	0.0
74	0xbc1b5b87	-0.009482271
75	0xbd0044b1	-0.03131551
76	0x00000000	0.0
77	0xbcb6d62e	-0.022318926
78	0xbd5265e8	-0.051366717
79	0xbc372556	-0.011178335
80	0xbdc87ac4	-0.09789041
81	0xbd646bcc	-0.055766866
82	0x00000000	0.0
83	0x3c14ed71	0.009089814
84	0xbc09e747	-0.008416957
85	0xbdc9e1a0	-0.09857488
86	0xbc849657	-0.016184969
87	0xbda4b418	-0.08042163
88	0xbcf910fe	-0.03040361
89	0x00000000	0.0
90	0xbbf2d5ee	-0.0074107563
91	0xbdb974e8	-0.09055501
92	0xbdbb40f2	-0.09143247
93	0xbc4915d6	-0.0122732725
94	0xbc12b655	-0.008954604
95	0x00000000	0.0
96	0xbddd2955	-0.10798899
97	0xbcefdab8	-0.029279098
98	0xbd71af21	-0.059004907
99	0xbd747567	-0.059682276
100	0xbd36f6ad	-0.044668842
101	0xbbca5103	-0.006174208
102	0xbd8bf7cf	-0.06834375
103	0xbc405308	-0.011738546
104	0x00000000	0.0
105	0x00000000	0.0
106	0xbd3a53a3	-0.04548992
107	0xbda2d4cf	-0.07950746
108	0xbc81694b	-0.015797278
109	0xbd446abd	-0.047953356
110	0xbc92a09f	-0.017898856
111	0xbc97c5bf	-0.01852691
112	0x00000000	0.0
113	0xbd92cdfc	-0.07168195
114	0xbd4da70f	-0.050208148
115	0xbc73dd63	-0.014884326
116	0xbddd1d5e	-0.10796617
117	0xbc492566	-0.012276983
118	0x00000000	0.0
119	0x3c2f97c4	0.010717336
120	0x3d87ca50	0.06630385
121	0x3d2aedf9	0.041730855
122	0xbba8d546	-0.0051523773
123	0xbcf9db6b	-0.030500134
124	0xbd2c1129	-0.042008553
125	0xbdab73e5	-0.083717145
126	0x00000000	0.0
127	0xbde86402	-0.113472

arith.constant1 f4 [64]
0	0xbded9646	-0.11600928
1	0x3d1202a3	0.035647046
2	0xbd83785c	-0.06419441
3	0x3d61c31f	0.055117723
4	0x3d9dca0c	0.07704553
5	0x3da74820	0.081680536
6	0xbd06e183	-0.03292991
7	0x3da72221	0.081608064
8	0xbd607b2a	-0.05480496
9	0x3d3dd6f2	0.046347566
10	0xbd83b2bf	-0.064305775
11	0x3d03eaa7	0.032206204
12	0x3d90bb37	0.070669584
13	0x3de37d36	0.111078665
14	0x3dfc2826	0.12312345
15	0x3dba0a11	0.09083951
16	0xba6a0950	-0.0008927779
17	0x3d02b44e	0.031910233
18	0x3daed295	0.08536259
19	0x3d480579	0.048833344
20	0x3da0359e	0.07822727
21	0x3c993cab	0.018705687
22	0x3afd121d	0.0019307766
23	0x3d4059cc	0.046960637
24	0x3cd1400d	0.025543237
25	0x3c355a74	0.011068929
26	0x3e054e50	0.13018155
27	0x3d7ca594	0.061681345
28	0x3ccf34c8	0.025293723
29	0x3de6ab17	0.112631015
30	0x3d8354c1	0.0641265
31	0x3d82fd80	0.063960075
32	0xbe43f0ed	-0.19134875
33	0xbb8e3aff	-0.004340529
34	0x3e34a6ec	0.176418
35	0x3cdcf481	0.026972057
36	0x3da765d3	0.08173718
37	0x3da615ac	0.08109602
38	0x3d7aaac9	0.06119803
39	0x3c624c3b	0.01381212
40	0x3d7d89b9	0.06189892
41	0x3d9ef38d	0.077612974
42	0xbcf8bfb2	-0.030364845
43	0x3d978789	0.07398898
44	0x3d8f7a21	0.07005716
45	0x3cf7f61a	0.030268718
46	0x3d4541b2	0.048158355
47	0x3df63638	0.1202206
48	0x3e183b3e	0.14866349
49	0x3d850ae1	0.064962156
50	0x3d451350	0.04811412
51	0x3deb2792	0.11482157
52	0x3cc84819	0.024448441
53	0x3c529eaf	0.012855216
54	0x3da550ad	0.08072028
55	0x3d2346c8	0.039862424
56	0x3db1735e	0.08664583
57	0x3d3715cc	0.04469852
58	0x3d51da57	0.051233616
59	0x3dc3859d	0.09546969
60	0x3cced2c8	0.025246993
61	0x3d49d87f	0.049278732
62	0xbd6ae102	-0.05734349
63	0x3dfd7a4a	0.123768404

arith.constant2 f4 [8]
0	0x3efd530a	0.49477416
1	0xbe0805f5	-0.13283522
2	0xbe4794e5	-0.19490393
3	0x3eb16d37	0.34653637
4	0xbdcdc6fb	-0.10047718
5	0xbdd6400c	-0.10461435
6	0xbf3ccf32	-0.73753655
7	0x3ea1ad5b	0.31577572

arith.constant20 f4 [8, 64]
0	0xbf62af5e	-0.8854884
1	0xbf3f3b05	-0.7469943
2	0xbfbda96b	-1.4817327
3	0xbfa53581	-1.2906953
4	0x3e6ec634	0.23317796
5	0x3e79f352	0.24409226
6	0x3e2cecee	0.16887257
7	0xbea78122	-0.32715708
8	0xc0026e92	-2.0379987
9	0xbf84a6e0	-1.0363426
10	0xbf429b1f	-0.76017946
11	0xbe16c36f	-0.1472299
12	0x3e126c8f	0.14299224
13	0x3ecac629	0.3960431
14	0x3e74c869	0.23904575
15	0xbf8c6c2a	-1.0970509
16	0xbf82aa11	-1.020815
17	0xbeb6409c	-0.35596168
18	0x3dea3823	0.114364885
19	0x3d3861a2	0.045014985
20	0xbf9d0e2f	-1.2269953
21	0xbdc237f0	-0.094833255
22	0x3f192a61	0.5983029
23	0x3e1bd6b3	0.1521862
24	0xbeced0b7	-0.40393612
25	0x3eceea6a	0.4041322
26	0xbdc0e65e	-0.09418939
27	0x3e8a6c89	0.2703593
28	0xbe6b38da	-0.22970906
29	0xbfa632ec	-1.298429
30	0x3e3e4ff6	0.1858519
31	0x3ea4f584	0.32218564
32	0xbfb50f83	-1.4145359
33	0xbd9e1bc5	-0.0772014
34	0x3e9a45f2	0.3013149
35	0xbce580b0	-0.028015465
36	0x3f030f1c	0.5119493
37	0x3e8a8b35	0.27059332
38	0x3ef971f9	0.48719767
39	0xbff7df8c	-1.9365096
40	0x3e8c523e	0.27406496
41	0xbd80f30e	-0.06296359
42	0x3e06ecca	0.13176265
43	0xbe01b3b1	-0.12666203
44	0x3e8961b4	0.26832354
45	0x3ed3ead3	0.41390094
46	0x3ec3e458	0.3826015
47	0xbf2a4726	-0.66514814
48	0x3f4a49ca	0.79018843
49	0x3e78b3be	0.24287316
50	0x3e847084	0.25867093
51	0x3f05bf1c	0.52244735
52	0xbeee55b9	-0.46549776
53	0xbfe2ba37	-1.7713078
54	0x3e7c5acc	0.24644011
55	0x3ea83361	0.328517
56	0x3e450f65	0.19244154
57	0xbfafaff5	-1.3725573
58	0x3e068875	0.13137992
59	0xbfc1d1f7	-1.5142201
60	0xbf92e919	-1.1477386
61	0x3e8cec75	0.27524152
62	0x3c29cdee	0.010364039
63	0x3ed7f058	0.42175555
64	0xbed838d0	-0.42230844
65	0xbfb744f1	-1.4317914
66	0xbf8662d1	-1.0498906
67	0x3e8503cd	0.25979462
68	0xbf8f573a	-1.1198494
69	0x3e558fd2	0.20855644
70	0xbeb17f99	-0.34667662
71	0xbd59cfb3	-0.053176593
72	0xbee8e40b	-0.45486483
73	0x3ef11b40	0.47091103
74	0x3e6e77ec	0.23287934
75	0xbf890169	-1.0703555
76	0xbf9905a2	-1.1954844
77	0x3eb6fe09	0.35740688
78	0x3e5cd2b7	0.21564756
79	0x3e748611	0.23879267
80	0xbf80a0f4	-1.0049119
81	0xbfc8255f	-1.5636405
82	0x3dc1d22b	0.094639145
83	0xbf827df3	-1.0194687
84	0x3e52086b	0.20511024
85	0xbf9ff7dc	-1.2497516
86	0x3f20e63a	0.628513
87	0xbfa47df6	-1.285094
88	0x3eb295ed	0.3488001
89	0xbf9394cc	-1.1529784
90	0xbe711a9a	-0.23545304
91	0x3e81ceb3	0.2535301
92	0xbf86c537	-1.0528935
93	0x3ea5d21c	0.32386863
94	0x3dcdb051	0.10043395
95	0x3e9da1b8	0.30787444
96	0xbe4fe709	-0.20302977
97	0xbce9bd29	-0.028532581
98	0x3e95d58d	0.2926449
99	0xbf87b78d	-1.060289
100	0xbe83d9bd	-0.2575206
101	0x3e5a7d29	0.21336807
102	0x3f1364e5	0.5757583
103	0xbe60858c	-0.21925944
104	0x3e87e88f	0.26544616
105	0xbfbaeaeb	-1.4602941
106	0xbf83e962	-1.0305598
107	0xbea5f369	-0.3241227
108	0x3e4055a5	0.18782671
109	0x3ef18c03	0.47177133
110	0xbf187546	-0.59553945
111	0xbf806b7a	-1.0032799
112	0x3f50553e	0.8138007
113	0x3e97b642	0.2963124
114	0x3e8f9b57	0.28048202
115	0x3f0c96ea	0.54917777
116	0x3eb718c7	0.3576109
117	0x3dfebe88	0.12438685
118	0x3ed4829d	0.415059
119	0xbf6108d5	-0.879041
120	0xbe6d0f90	-0.23150468
121	0x3e175f56	0.14782462
122	0x3dc38cfb	0.09548374
123	0x3b06bb8d	0.0020558566
124	0x3ec347ce	0.3814072
125	0x3e8a5fe7	0.27026293
126	0xbf99d907	-1.2019356
127	0x3efc2d23	0.49253187
128	0xbf263987	-0.6493153
129	0xbf9c8fd9	-1.2231399
130	0xbfa350b7	-1.2759007
131	0x3e9669d0	0.29377604
132	0x3e9d5f7d	0.30736914
133	0xbf0c9326	-0.5491203
134	0xbf302a04	-0.6881411
135	0x3e9e43e4	0.3091117
136	0xbf9fcf9f	-1.2485236
137	0x3f00e5ba	0.50350535
138	0xbfa9c7a4	-1.326405
139	0xbfc3981c	-1.5280795
140	0x3e94716b	0.2899278
141	0xbe9d04ca	-0.30667716
142	0xbc509332	-0.012730407
143	0x3e4611f6	0.19342789
144	0xbe1445fd	-0.14479823
145	0xbed9f3d6	-0.42568845
146	0x3df7fb4a	0.121084765
147	0xbfb035f9	-1.3766471
148	0x3e82d11c	0.25550163
149	0xbf27283c	-0.6529577
150	0x3efd9eb3	0.4953514
151	0xbe591cee	-0.21202442
152	0x3ee54e93	0.4478651
153	0x3e3a12b5	0.18171199
154	0x3e7e98fd	0.24863048
155	0x3e9a796b	0.3017076
156	0xbfe1b00f	-1.7631854
157	0x3eb4d6ce	0.35320133
158	0xbf587287	-0.84549755
159	0x3daa6161	0.08319355
160	0xbf0bf071	-0.5466376
161	0xbf5387bf	-0.8262901
162	0xbe6ab3d6	-0.22920164
163	0x3e3f6eaf	0.18694566
164	0x3f0500d5	0.51954395
165	0xbf94ca81	-1.1624299
166	0x3f177e72	0.59177315
167	0x3d0f09ab	0.03492133
168	0x3e93b3d5	0.28848138
169	0x3dff2b7e	0.12459467
170	0xbff4d19e	-1.912647
171	0xbf20a711	-0.62754923
172	0xbf622abc	-0.8834646
173	0x3eddeb1e	0.43343443
174	0xc00b7f12	-2.1796308
175	0xbd87343e	-0.06601761
176	0xbeb21884	-0.3478433
177	0x3e70fe7d	0.2353458
178	0xbf4ac007	-0.7919926
179	0x3e9594ad	0.29214993
180	0x3ec2e922	0.3806849
181	0x3e5f9129	0.21832718
182	0x3ebed7fb	0.37274155
183	0xc01e510e	-2.4736972
184	0xbeb37026	-0.350465
185	0x3e4ecdfa	0.20195761
186	0x3e2b6ca5	0.16740663
187	0x3d809d53	0.06280007
188	0x3ee11a50	0.43965387
189	0xbf3cea77	-0.73795265
190	0x3df72ab3	0.12068691
191	0x3e993363	0.29922017
192	0xbf66ef23	-0.90208644
193	0x3acb4c6d	0.0015510448
194	0xbf03a41a	-0.51422274
195	0xbe95b7a5	-0.29241672
196	0x3ec50a5c	0.38484466
197	0xc001e89a	-2.0298219
198	0x3e8a1205	0.26966873
199	0x3ea98680	0.33110428
200	0xbede0ce1	-0.433692
201	0xbf05f1a3	-0.52321833
202	0x3e55b82c	0.20871037
203	0x3dbd6d0b	0.09249314
204	0x3e821245	0.25404564
205	0xbf144580	-0.5791855
206	0xc0098ca9	-2.1492102
207	0x3e37c327	0.17945538
208	0x3de3dcf2	0.11126126
209	0x3d2d6489	0.042332206
210	0x3e0a389c	0.13498157
211	0xbd1b3c32	-0.037899204
212	0xbdfef42d	-0.124489166
213	0x3e1c7152	0.15277603
214	0xbfd61707	-1.6725777
215	0xbf2cd43b	-0.6751134
216	0x3ea35482	0.31900412
217	0x3ebe5454	0.37173712
218	0x3e9a30bf	0.30115315
219	0x3e78d4a9	0.24299873
220	0x3d80b14d	0.062838174
221	0x3e902bba	0.2815836
222	0x3db9c70b	0.090711676
223	0xbfe903fd	-1.8204342
224	0xbf431aa8	-0.7621255
225	0x3dfe3d1b	0.12413999
226	0xbfe700d5	-1.8047129
227	0x3e73d3ae	0.23811218
228	0x3f262b63	0.6490995
229	0xbf9ce2c1	-1.22567
230	0xbf91de95	-1.1396052
231	0xbd90e4d7	-0.07074898
232	0x3e9f144e	0.3107018
233	0x3e5cfd29	0.21580948
234	0xbf4ae91c	-0.79261947
235	0x3e9157cd	0.283873
236	0xbfd40a58	-1.6565657
237	0xbf781ce1	-0.96919066
238	0xbf9f476b	-1.244367
239	0xbe1bc5f4	-0.15212232
240	0xbeab0911	-0.33405355
241	0xbf977509	-1.1832591
242	0xbfb6bf51	-1.4277135
243	0xbf2e8dba	-0.6818501
244	0x3eaded8b	0.33970293
245	0x3e2a341c	0.1662144
246	0xbf4314bf	-0.7620353
247	0xbe89eaef	-0.26937053
248	0x3e9072a5	0.28212467
249	0x3df53a69	0.119740315
250	0x3e286d90	0.16448045
251	0x3c6e1c4d	0.014533115
252	0x3e928140	0.28614235
253	0xbfca6215	-1.5811182
254	0xbf5d4282	-0.8642961
255	0xbf34b715	-0.7059186

tfl.pseudo_qconst i1 [64, 128] scale=0.014765659 zero_point=0
0	0x01	0.014765659
1	0xfe	-0.029531319
2	0x05	0.073828295
3	0x17	0.33961016
4	0x1b	0.3986728
5	0x0d	0.19195357
6	0xf3	-0.19195357
7	0xfe	-0.029531319
8	0x02	0.029531319
9	0x0b	0.16242225
10	0xfb	-0.073828295
11	0xf5	-0.16242225
12	0xf5	-0.16242225
13	0x11	0.2510162
14	0xf8	-0.118125275
15	0x1c	0.41343847
16	0xe3	-0.42820412
17	0x12	0.26578188
18	0xf8	-0.118125275
19	0x19	0.3691415
20	0x0b	0.16242225
21	0xe3	-0.42820412
22	0xff	-0.014765659
23	0x07	0.10335962
24	0x09	0.13289094
25	0x0d	0.19195357
26	0x08	0.118125275
27	0x00	0.0
28	0xbd	-0.9892992
29	0x08	0.118125275
30	0x07	0.10335962
31	0xf2	-0.20671923
32	0x01	0.014765659
33	0x00	0.0
34	0x23	0.5167981
35	0x2a	0.6201577
36	0x06	0.08859396
37	0x16	0.3248445
38	0x0c	0.17718792
39	0x07	0.10335962
40	0x0e	0.20671923
41	0xf5	-0.16242225
42	0x20	0.4725011
43	0x0c	0.17718792
44	0xfd	-0.04429698
45	0xc6	-0.85640824
46	0x25	0.5463294
47	0xef	-0.2510162
48	0xff	-0.014765659
49	0xfa	-0.08859396
50	0x34	0.7678143
51	0xf2	-0.20671923
52	0xfd	-0.04429698
53	0x08	0.118125275
54	0x02	0.029531319
55	0x03	0.04429698
56	0xf2	-0.20671923
57	0x15	0.31007886
58	0x1b	0.3986728
59	0xf5	-0.16242225
60	0x0b	0.16242225
61	0xd4	-0.649689
62	0xf7	-0.13289094
63	0xfd	-0.04429698
64	0xff	-0.014765659
65	0xf9	-0.10335962
66	0x0d	0.19195357
67	0xee	-0.26578188
68	0x06	0.08859396
69	0x20	0.4725011
70	0x0a	0.14765659
71	0xf9	-0.10335962
72	0x0f	0.22148488
73	0x00	0.0
74	0xf8	-0.118125275
75	0xea	-0.3248445
76	0xf7	-0.13289094
77	0x06	0.08859396
78	0xd4	-0.649689
79	0xfc	-0.059062637
80	0xcf	-0.7235173
81	0xf1	-0.22148488
82	0x02	0.029531319
83	0x0d	0.19195357
84	0x06	0.08859396
85	0x04	0.059062637
86	0x04	0.059062637
87	0xe6	-0.38390714
88	0xe3	-0.42820412
89	0xfb	-0.073828295
90	0x0a	0.14765659
91	0xd2	-0.6792203
92	0xce	-0.738283
93	0xf8	-0.118125275
94	0x08	0.118125275
95	0x0b	0.16242225
96	0x03	0.04429698
97	0x00	0.0
98	0x00	0.0
99	0xe6	-0.38390714
100	0x0d	0.19195357
101	0x06	0.08859396
102	0x13	0.28054753
103	0x05	0.073828295
104	0xf7	-0.13289094
105	0xf9	-0.10335962
106	0x27	0.57586074
107	0xe6	-0.38390714
108	0xf6	-0.14765659
109	0x07	0.10335962
110	0x0c	0.17718792
111	0x04	0.059062637
112	0xf9	-0.10335962
113	0xe8	-0.35437584
114	0x03	0.04429698
115	0x0c	0.17718792
116	0x2b	0.63492334
117	0x0b	0.16242225
118	0xfe	-0.029531319
119	0x0b	0.16242225
120	0x09	0.13289094
121	0x16	0.3248445
122	0xf5	-0.16242225
123	0x0c	0.17718792
124	0xe9	-0.33961016
125	0xea	-0.3248445
126	0xf5	-0.16242225
127	0xfc	-0.059062637
128	0x07	0.10335962
129	0x53	1.2255497
130	0xfa	-0.08859396
131	0xd3	-0.6644547
132	0xea	-0.3248445
133	0xcc	-0.7678143
134	0x01	0.014765659
135	0x01	0.014765659
136	0xff	-0.014765659
137	0x0c	0.17718792
138	0xf6	-0.14765659
139	0x00	0.0
140	0x08	0.118125275
141	0x0d	0.19195357
142	0x07	0.10335962
143	0xf0	-0.23625055
144	0x14	0.29531318
145	0xd8	-0.59062636
146	0x36	0.7973456
147	0x24	0.53156376
148	0x01	0.014765659
149	0x00	0.0
150	0xfb	-0.073828295
151	0xf9	-0.10335962
152	0x0a	0.14765659
153	0x03	0.04429698
154	0xfc	-0.059062637
155	0x06	0.08859396
156	0xfe	-0.029531319
157	0x09	0.13289094
158	0x07	0.10335962
159	0xfa	-0.08859396
160	0xf9	-0.10335962
161	0xed	-0.28054753
162	0xf8	-0.118125275
163	0x20	0.4725011
164	0xf6	-0.14765659
165	0x08	0.118125275
166	0x28	0.59062636
167	0x00	0.0
168	0xfd	-0.04429698
169	0x05	0.073828295
170	0x1b	0.3986728
171	0x34	0.7678143
172	0x0b	0.16242225
173	0xf5	-0.16242225
174	0x0a	0.14765659
175	0xf9	-0.10335962
176	0xf8	-0.118125275
177	0x02	0.029531319
178	0x2e	0.6792203
179	0xec	-0.29531318
180	0x5e	1.387972
181	0xff	-0.014765659
182	0xe7	-0.3691415
183	0x21	0.48726675
184	0x01	0.014765659
185	0x2f	0.693986
186	0xe3	-0.42820412
187	0x0b	0.16242225
188	0x07	0.10335962
189	0xfe	-0.029531319
190	0x03	0.04429698
191	0x02	0.029531319
192	0x01	0.014765659
193	0xf3	-0.19195357
194	0xe9	-0.33961016
195	0xc3	-0.9007052
196	0x09	0.13289094
197	0x0f	0.22148488
198	0xf2	-0.20671923
199	0x07	0.10335962
200	0x01	0.014765659
201	0x0a	0.14765659
202	0x0a	0.14765659
203	0x1f	0.45773545
204	0x07	0.10335962
205	0x0c	0.17718792
206	0xf1	-0.22148488
207	0xf6	-0.14765659
208	0xfb	-0.073828295
209	0xe3	-0.42820412
210	0x08	0.118125275
211	0x28	0.59062636
212	0xf8	-0.118125275
213	0x1a	0.38390714
214	0xfd	-0.04429698
215	0x16	0.3248445
216	0x01	0.014765659
217	0x02	0.029531319
218	0xf8	-0.118125275
219	0x03	0.04429698
220	0xff	-0.014765659
221	0xfd	-0.04429698
222	0x0b	0.16242225
223	0xf6	-0.14765659
224	0x05	0.073828295
225	0xf6	-0.14765659
226	0x07	0.10335962
227	0x00	0.0
228	0xf8	-0.118125275
229	0x06	0.08859396
230	0x3a	0.85640824
231	0x51	1.1960185
232	0xfa	-0.08859396
233	0x0a	0.14765659
234	0x16	0.3248445
235	0xdc	-0.53156376
236	0xf6	-0.14765659
237	0x00	0.0
238	0x57	1.2846124
239	0x04	0.059062637
240	0xf7	-0.13289094
241	0xfd	-0.04429698
242	0x04	0.059062637
243	0xf8	-0.118125275
244	0x10	0.23625055
245	0x01	0.014765659
246	0xfe	-0.029531319
247	0xd5	-0.63492334
248	0xd5	-0.63492334
249	0xfd	-0.04429698
250	0xff	-0.014765659
251	0x06	0.08859396
252	0xee	-0.26578188
253	0xe7	-0.3691415
254	0x04	0.059062637
255	0xfd	-0.04429698

tfl.pseudo_qconst1 i1 [128, 34] scale=0.021775283 zero_point=0
0	0xfb	-0.108876415
1	0x06	0.1306517
2	0xfd	-0.06532585
3	0x05	0.108876415
4	0x05	0.108876415
5	0x05	0.108876415
6	0x06	0.1306517
7	0x08	0.17420226
8	0xfa	-0.1306517
9	0x07	0.15242699
10	0x02	0.043550566
11	0xf9	-0.15242699
12	0xfe	-0.043550566
13	0xf7	-0.19597754
14	0x00	0.0
15	0xf9	-0.15242699
16	0x05	0.108876415
17	0x04	0.08710113
18	0x01	0.021775283
19	0xff	-0.021775283
20	0x07	0.15242699
21	0x08	0.17420226
22	0x03	0.06532585
23	0x07	0.15242699
24	0x02	0.043550566
25	0xfb	-0.108876415
26	0x04	0.08710113
27	0x05	0.108876415
28	0xff	-0.021775283
29	0x00	0.0
30	0xfa	-0.1306517
31	0xfa	-0.1306517
32	0xf9	-0.15242699
33	0xfd	-0.06532585
34	0x06	0.1306517
35	0x05	0.108876415
36	0xee	-0.39195508
37	0x08	0.17420226
38	0xef	-0.3701798
39	0x00	0.0
40	0xea	-0.47905624
41	0xf6	-0.21775283
42	0xdb	-0.80568546
43	0x06	0.1306517
44	0x18	0.5226068
45	0x04	0.08710113
46	0xf5	-0.23952812
47	0xf7	-0.19597754
48	0xff	-0.021775283
49	0xf4	-0.2613034
50	0x15	0.45728093
51	0x10	0.34840453
52	0xf1	-0.32662925
53	0xf8	-0.17420226
54	0x17	0.5008315
55	0xfa	-0.1306517
56	0x04	0.08710113
57	0x78	2.613034
58	0xf1	-0.32662925
59	0x87	-2.6348093
60	0xf8	-0.17420226
61	0xfb	-0.108876415
62	0x11	0.3701798
63	0xff	-0.021775283
64	0xbc	-1.4807192
65	0x04	0.08710113
66	0xbd	-1.458944
67	0x05	0.108876415
68	0x08	0.17420226
69	0x08	0.17420226
70	0xff	-0.021775283
71	0x06	0.1306517
72	0x01	0.021775283
73	0x03	0.06532585
74	0xfa	-0.1306517
75	0xf8	-0.17420226
76	0x03	0.06532585
77	0x06	0.1306517
78	0xf9	-0.15242699
79	0xff	-0.021775283
80	0x08	0.17420226
81	0x03	0.06532585
82	0x02	0.043550566
83	0x05	0.108876415
84	0xf8	-0.17420226
85	0x09	0.19597754
86	0x01	0.021775283
87	0x08	0.17420226
88	0x06	0.1306517
89	0xfd	-0.06532585
90	0x00	0.0
91	0xfe	-0.043550566
92	0x07	0.15242699
93	0xfb	-0.108876415
94	0x04	0.08710113
95	0xfb	-0.108876415
96	0xfd	-0.06532585
97	0xfb	-0.108876415
98	0xfe	-0.043550566
99	0x03	0.06532585
100	0x07	0.15242699
101	0x04	0.08710113
102	0x24	0.78391016
103	0xf9	-0.15242699
104	0x33	1.1105394
105	0xf7	-0.19597754
106	0x2c	0.9581125
107	0xee	-0.39195508
108	0x11	0.3701798
109	0xf8	-0.17420226
110	0x13	0.41373038
111	0xf7	-0.19597754
112	0xdb	-0.80568546
113	0x06	0.1306517
114	0x0b	0.23952812
115	0x01	0.021775283
116	0xe3	-0.6314832
117	0x13	0.41373038
118	0xfd	-0.06532585
119	0xfd	-0.06532585
120	0xfc	-0.08710113
121	0x04	0.08710113
122	0xf4	-0.2613034
123	0x0c	0.2613034
124	0xda	-0.82746077
125	0xba	-1.5242698
126	0x26	0.82746077
127	0x42	1.4371687
128	0xed	-0.41373038
129	0xfc	-0.08710113
130	0xf4	-0.2613034
131	0xf7	-0.19597754
132	0x07	0.15242699
133	0x04	0.08710113
134	0xfb	-0.108876415
135	0xff	-0.021775283
136	0x17	0.5008315
137	0xfb	-0.108876415
138	0x10	0.34840453
139	0xfc	-0.08710113
140	0x0c	0.2613034
141	0xf9	-0.15242699
142	0xe9	-0.5008315
143	0x08	0.17420226
144	0xe5	-0.58793265
145	0x04	0.08710113
146	0xf0	-0.34840453
147	0xf5	-0.23952812
148	0x02	0.043550566
149	0x0c	0.2613034
150	0x1b	0.58793265
151	0x0a	0.21775283
152	0x12	0.39195508
153	0xf9	-0.15242699
154	0x3c	1.306517
155	0x0b	0.23952812
156	0x4e	1.698472
157	0xf7	-0.19597754
158	0xf3	-0.28307867
159	0x0d	0.28307867
160	0x05	0.108876415
161	0xeb	-0.45728093
162	0x00	0.0
163	0x01	0.021775283
164	0x13	0.41373038
165	0xf9	-0.15242699
166	0xfd	-0.06532585
167	0x00	0.0
168	0x01	0.021775283
169	0x0b	0.23952812
170	0xfb	-0.108876415
171	0xf7	-0.19597754
172	0x08	0.17420226
173	0x02	0.043550566
174	0xfd	-0.06532585
175	0xf3	-0.28307867
176	0x28	0.8710113
177	0xf8	-0.17420226
178	0x0a	0.21775283
179	0xf4	-0.2613034
180	0xf8	-0.17420226
181	0xf7	-0.19597754
182	0x1c	0.60970795
183	0xff	-0.021775283
184	0x03	0.06532585
185	0xff	-0.021775283
186	0x28	0.8710113
187	0x0c	0.2613034
188	0x02	0.043550566
189	0xfb	-0.108876415
190	0x2c	0.9581125
191	0x2f	1.0234383
192	0x13	0.41373038
193	0xd6	-0.91456187
194	0xf1	-0.32662925
195	0x38	1.2194159
196	0x0a	0.21775283
197	0xfb	-0.108876415
198	0xdb	-0.80568546
199	0xfe	-0.043550566
200	0x25	0.80568546
201	0x05	0.108876415
202	0x13	0.41373038
203	0x00	0.0
204	0xf8	-0.17420226
205	0xf1	-0.32662925
206	0x07	0.15242699
207	0xf8	-0.17420226
208	0xfb	-0.108876415
209	0xf0	-0.34840453
210	0x1a	0.56615734
211	0xf7	-0.19597754
212	0x04	0.08710113
213	0xf9	-0.15242699
214	0xfe	-0.043550566
215	0xfa	-0.1306517
216	0x0f	0.32662925
217	0xf8	-0.17420226
218	0x07	0.15242699
219	0xfb	-0.108876415
220	0x17	0.5008315
221	0xfa	-0.1306517
222	0xf2	-0.30485398
223	0x25	0.80568546
224	0x09	0.19597754
225	0x40	1.3936181
226	0x01	0.021775283
227	0xc6	-1.2629664
228	0xf1	-0.32662925
229	0x35	1.15409
230	0x02	0.043550566
231	0x01	0.021775283
232	0xe7	-0.5443821
233	0x0a	0.21775283
234	0x03	0.06532585
235	0xfd	-0.06532585
236	0x09	0.19597754
237	0xff	-0.021775283
238	0x00	0.0
239	0xff	-0.021775283
240	0x02	0.043550566
241	0xfb	-0.108876415
242	0x02	0.043550566
243	0xfe	-0.043550566
244	0x08	0.17420226
245	0x09	0.19597754
246	0xfe	-0.043550566
247	0x08	0.17420226
248	0x00	0.0
249	0x00	0.0
250	0xf9	-0.15242699
251	0x03	0.06532585
252	0x08	0.17420226
253	0x00	0.0
254	0xfa	-0.1306517
255	0x08	0.17420226
