Computer_Vision/Tensorflow/models/P1andP2model.tflite (tflite, 23976 bytes, 6 tensors)

arith.constant f4 [128]
0	0xbbaf187c	-0.005343495
1	0x3c822557	0.015886946
2	0x00000000	0.0
3	0xbaabc177	-0.0013103922
4	0xba4e3888	-0.00078667
5	0x3adabe44	0.0016688784
6	0x3ca556ac	0.02018293
7	0xbc62e4d6	-0.013848504
8	0xbbf58fc7	-0.0074939462
9	0xbbd1bd99	-0.0064007756
10	0x00000000	0.0
11	0xbbded79f	-0.0068006064
12	0x3c9f54ee	0.019449677
13	0x00000000	0.0
14	0x00000000	0.0
15	0x3b2ba6c5	0.0026191932
16	0x00000000	0.0
17	0x00000000	0.0
18	0xbc207062	-0.009792419
19	0x00000000	0.0
20	0xbc085f49	-0.008323499
21	0x3c2cc68b	0.010545383
22	0xba3644ae	-0.0006952983
23	0xbbc4b9c5	-0.0060035908
24	0xbcdd4015	-0.027008096
25	0xbbe292cd	-0.0069144727
26	0xbbe8b63b	-0.0071018017
27	0x00000000	0.0
28	0xbb431b93	-0.0029771074
29	0xbc187226	-0.009304559
30	0x3c20d6bd	0.009816823
31	0x3b8c7e91	0.004287549
32	0x00000000	0.0
33	0x3cb367d8	0.021900102
34	0x00000000	0.0
35	0x3cba7f22	0.0227657
36	0x3c92fa63	0.01794166
37	0x00000000	0.0
38	0x00000000	0.0
39	0x00000000	0.0
40	0x388710db	6.440441e-05
41	0x00000000	0.0
42	0x00000000	0.0
43	0x00000000	0.0
44	0xbbb74124	-0.005592482
45	0xbbd95365	-0.006632256
46	0xbbfebbfa	-0.0077738734
47	0xbc4758e2	-0.012167187
48	0x00000000	0.0
49	0xbaa372cf	-0.0012470129
50	0xbbab42d4	-0.0052264724
51	0xbc3deecf	-0.011592581
52	0x3d2bf4a3	0.04198135
53	0x3c4ed548	0.012624092
54	0x00000000	0.0
55	0xbbaa492a	-0.00519671
56	0x3b534720	0.0032238439
57	0x3cb1630f	0.02165368
58	0x3b0e7189	0.0021735153
59	0xbc8673c5	-0.016412625
60	0x00000000	0.0
61	0x00000000	0.0
62	0xbc04b279	-0.008099192
63	0x00000000	0.0
64	0x3c06caab	0.008227031
65	0x00000000	0.0
66	0xb9afd3f2	-0.00033536513
67	0x00000000	0.0
68	0x00000000	0.0
69	0x00000000	0.0
70	0xbc4b27ac	-0.012399595
71	0x3c2a5a32	0.010397481
72	0x3ca95b11	0.020673307
73	0xbc1d57e2	-0.009603472
74	0x3c0d29a0	0.008615881
75	0x3cd640e9	0.026153998
76	0x3c28eae7	0.010309911
77	0x00000000	0.0
78	0x00000000	0.0
79	0x00000000	0.0
80	0xbc7bb3c7	-0.0153626865
81	0x3c3d4c02	0.011553766
82	0x00000000	0.0
83	0xbbc4bf2c	-0.006004235
84	0xbc2d2318	-0.010567449
85	0x00000000	0.0
86	0x3c65a332	0.01401596
87	0x3b65e1a5	0.0035077122
88	0x00000000	0.0
89	0x3c091c2f	0.008368536
90	0x3aa06591	0.00122373
91	0x3b968efd	0.0045946823
92	0x3b07b350	0.0020706244
93	0xbd4a062b	-0.04932229
94	0x3b730bfc	0.0037086
95	0x3cd63882	0.026149992
96	0x00000000	0.0
97	0xbb0837c1	-0.0020785185
98	0xbc25955b	-0.01010641
99	0x3b8b7ffe	0.004257201
100	0x00000000	0.0
101	0x3bd0984e	0.0063658124
102	0x00000000	0.0
103	0xbbda74b8	-0.006666746
104	0xbba669fc	-0.0050785523
105	0x3c5966e3	0.013269159
106	0x3bb78382	0.0056003937
107	0x39c729e9	0.00037987463
108	0x3ba9b5a1	0.0051791226
109	0xbac20b76	-0.0014804441
110	0xbd423819	-0.04741678
111	0x00000000	0.0
112	0xbcfa8624	-0.030581541
113	0x00000000	0.0
114	0xbbb61692	-0.00555689
115	0x3cd7fdfd	0.026366228
116	0x00000000	0.0
117	0x3bfacfda	0.0076541724
118	0x3c1666ac	0.009179752
119	0x3cb34513	0.021883523
120	0x00000000	0.0
121	0x00000000	0.0
122	0xbbbacc2c	-0.0057006087
123	0x3bc14621	0.0058982526
124	0x382aa030	4.0680345e-05
125	0xbb703c55	-0.0036657054
126	0x3a921c7e	0.0011147407
127	0xbb674777	-0.00352904

arith.constant1 f4 [64]
0	0xbb00159c	-0.001954413
1	0x3c897f79	0.016784417
2	0xba2a3e2c	-0.00064942497
3	0x3cf8e886	0.030384313
4	0x3df47e30	0.11938131
5	0x3e4b99b2	0.19882849
6	0x3b985ed6	0.004649977
7	0x3be91107	0.0071126255
8	0x3df3bc83	0.1190119
9	0x3dd28dfa	0.10280986
10	0x3c98675d	0.018603975
11	0x3df97a17	0.1218149
12	0x3da955cd	0.08268318
13	0x3b665f90	0.0035152175
14	0x3e044798	0.12917936
15	0x3e00a896	0.1256431
16	0xbb8fbc9c	-0.0043864977
17	0x3c174dc6	0.009234851
18	0x3daf3379	0.085547395
19	0x3dda370b	0.1065503
20	0x3ca12aee	0.01967379
21	0xbcf6a95f	-0.03011006
22	0x3e37ad14	0.17937118
23	0x3d0be86e	0.03415721
24	0xbc019b04	-0.007910494
25	0xbc318413	-0.010834712
26	0x3df3755c	0.11887619
27	0xbb03404f	-0.0020027345
28	0x3deae91c	0.11470243
29	0xbbbc8e1f	-0.005754247
30	0x3df37589	0.118876524
31	0x3e0eaf1f	0.13933991
32	0x3e11f73e	0.14254472
33	0x3be0ff38	0.006866362
34	0xbb5bd902	-0.0033546095
35	0xbd0bf588	-0.034169704
36	0x3db17c49	0.08666284
37	0x3def0752	0.11671318
38	0x3df4dc4a	0.11956079
39	0x3dbd9024	0.09256008
40	0xbcc364c6	-0.023851763
41	0x3cc17c93	0.023618972
42	0x3a12cf69	0.00056003645
43	0x3c29d2b8	0.010365181
44	0x3ca812d0	0.020516783
45	0x3db8370b	0.089948736
46	0x3c5e71c2	0.013576927
47	0x3a0f208a	0.0005459866
48	0x3e2ff587	0.17183505
49	0x3cb520f8	0.022110447
50	0x3ddb1acf	0.10698473
51	0x3c069167	0.008213378
52	0x3bc7c34e	0.00609628
53	0x3dbea171	0.09308136
54	0xbd162be4	-0.03666295
55	0x3cdddc8f	0.02708271
56	0x3c0f2b40	0.008738339
57	0x3bd24676	0.006417091
58	0x3a752ee6	0.0009352997
59	0x3df51cc5	0.11968378
60	0x3cdb4a37	0.026768787
61	0x3e03572d	0.12826224
62	0x3e05e4d0	0.13075566
63	0x3df65121	0.12027193

arith.constant2 f4 [2]
0	0x3df75040	0.12075853
1	0xbdf75040	-0.12075853

arith.constant20 f4 [2, 64]
0	0xbe8a1c25	-0.26974598
1	0xbf131280	-0.57450104
2	0xbeef9f28	-0.46801114
3	0xbf32f57f	-0.6990585
4	0x3ec7963e	0.38981813
5	0x3e435c6f	0.1907823
6	0xbecb0846	-0.3965475
7	0xbeb16060	-0.3464384
8	0x3ef1f82f	0.47259662
9	0x3ed5c65b	0.41752896
10	0xbeb14e15	-0.34629884
11	0x3edc5362	0.43032366
12	0x3f0a471d	0.5401476
13	0xbeb9c3bc	-0.36282146
14	0x3f17da8e	0.59317863
15	0x3ed622c6	0.41823405
16	0xbf0c99e7	-0.54922336
17	0xbe9c4bcb	-0.30526575
18	0x3e85b21b	0.26112446
19	0x3f08f921	0.5350514
20	0xbe545f3a	-0.20739451
21	0x3d29e8bc	0.04148172
22	0x3f1f16cf	0.6214418
23	0xbed3f30e	-0.41396374
24	0xbee6038f	-0.4492459
25	0xbf192c78	-0.5983348
26	0x3e5b29c2	0.21402648
27	0xbefe7520	-0.49698734
28	0x3f0216f1	0.50816256
29	0xbf08fa4a	-0.5350691
30	0x3f08215d	0.5317591
31	0x3ec73050	0.38904047
32	0x3ea6edbc	0.32603252
33	0xbf1a124c	-0.6018417
34	0xbf03c1a8	-0.5146737
35	0xbdae12d3	-0.08499684
36	0x3eecfdd1	0.46287397
37	0x3ef7fe0e	0.48436016
38	0x3d7ea95e	0.06217324
39	0x3eb82cb1	0.35971597
40	0xbd9b46c9	-0.075818606
41	0xbeb1e5f2	-0.34745747
42	0xbe816458	-0.2527187
43	0xbea6acaa	-0.32553607
44	0xbf13f183	-0.5779039
45	0x3ee8972e	0.4542784
46	0xbd92c599	-0.07166595
47	0xbeed3d91	-0.46336034
48	0x3f04cef0	0.5187826
49	0xbee3c8ce	-0.4448914
50	0x3eddd829	0.4332898
51	0xbe852fc4	-0.26013005
52	0xbee32444	-0.44363606
53	0x3ef87418	0.48526073
54	0xbd8f0c50	-0.0698477
55	0xbebbf12c	-0.36707437
56	0xbeba7cb8	-0.36423278
57	0xbec9e445	-0.39431968
58	0xbe9fb4e6	-0.31192702
59	0x3e84a6cd	0.2590851
60	0xbea84196	-0.32862538
61	0x3ec0769d	0.37590495
62	0x3ddae374	0.106879145
63	0x3f098d31	0.53731066
64	0x3ee50660	0.44731426
65	0x3e847155	0.25867715
66	0x3e978a01	0.29597476
67	0x3e9c833f	0.30568883
68	0xbea5e1db	-0.32398877
69	0xbee3584f	-0.44403312
70	0x3e9d22c5	0.3069059
71	0x3edb6244	0.42848408
72	0xbea8eeb7	-0.32994625
73	0xbf06af80	-0.5261154
74	0x3f0ee525	0.55818397
75	0xbeb1c9dd	-0.34724322
76	0xbee94936	-0.45563668
77	0x3ebf4793	0.37359294
78	0xbd87991d	-0.06621001
79	0xbea6e311	-0.32595113
80	0x3e9202e8	0.28517842
81	0x3eca20d7	0.3947818
82	0xbf143552	-0.5789386
83	0xbeedc94e	-0.46442646
84	0x3ee01e90	0.43773317
85	0x3c4ec1e8	0.012619473
86	0xbdf681b3	-0.12036457
87	0x3ea59b0e	0.3234486
88	0x3ea11690	0.31462526
89	0x3f1af0fe	0.60523975
90	0xbec944f4	-0.3931042
91	0x3ed90524	0.42386734
92	0xbd66de21	-0.056364182
93	0x3ec17a4e	0.37788624
94	0xbee12992	-0.43977028
95	0xbe8fde90	-0.2809949
96	0xbec14bbe	-0.377531
97	0x3e5c5611	0.21517207
98	0x3eb925ee	0.3616175
99	0xbe6e0eb1	-0.23247792
100	0xbeaa7f07	-0.3330004
101	0xbe458e39	-0.19292535
102	0xbf0ebbdf	-0.5575542
103	0xbf084838	-0.532352
104	0xbe86c078	-0.26318717
105	0x3eb20588	0.34769845
106	0x3e512886	0.20425615
107	0x3ead712f	0.33875415
108	0x3f1593c1	0.5842858
109	0xbed9681d	-0.42462245
110	0x3f15f34e	0.5857438
111	0x3dba48bc	0.09095904
112	0xbe496063	-0.19665675
113	0x3efe29cd	0.49641266
114	0xbeb3622d	-0.3503584
115	0x3f1eb605	0.6199649
116	0x3f071c8d	0.5277794
117	0xbf0748df	-0.5284557
118	0x3e8f56e0	0.27995968
119	0x3ea9bb55	0.33150735
120	0x3f065fd3	0.52489966
121	0x3ec393b1	0.38198617
122	0x3ec41a74	0.38301432
123	0xbf18af6c	-0.5964267
124	0x3f09ba51	0.5379992
125	0xbeb0af50	-0.34508753
126	0xbf182d36	-0.59443986
127	0xbeac8df4	-0.33702052

tfl.pseudo_qconst i1 [64, 128] scale=0.0053860974 zero_point=0
0	0x18	0.12926634
1	0x11	0.09156366
2	0xf8	-0.04308878
3	0x40	0.34471023
4	0x21	0.17774121
5	0x3b	0.31777975
6	0xe9	-0.12388024
7	0x1c	0.15081072
8	0xf2	-0.07540536
9	0x10	0.08617756
10	0x04	0.02154439
11	0x44	0.36625463
12	0xcd	-0.27469096
13	0x12	0.096949756
14	0x1c	0.15081072
15	0x2e	0.24776047
16	0xf7	-0.048474878
17	0xed	-0.10233585
18	0xf8	-0.04308878
19	0xea	-0.11849414
20	0xe6	-0.14003853
21	0x0b	0.05924707
22	0x21	0.17774121
23	0x0c	0.06463317
24	0xf1	-0.08079146
25	0x11	0.09156366
26	0xea	-0.11849414
27	0x1a	0.14003853
28	0x13	0.10233585
29	0x05	0.026930487
30	0x04	0.02154439
31	0x23	0.18851341
32	0xe6	-0.14003853
33	0xdd	-0.18851341
34	0x0f	0.08079146
35	0xd3	-0.24237438
36	0xdd	-0.18851341
37	0x01	0.0053860974
38	0x0c	0.06463317
39	0xfb	-0.026930487
40	0xf0	-0.08617756
41	0x0b	0.05924707
42	0x18	0.12926634
43	0x17	0.12388024
44	0x0a	0.053860974
45	0x3b	0.31777975
46	0xe8	-0.12926634
47	0x09	0.048474878
48	0x1b	0.14542463
49	0x1d	0.15619682
50	0xf9	-0.03770268
51	0x15	0.11310805
52	0xe0	-0.17235512
53	0x1c	0.15081072
54	0xea	-0.11849414
55	0x15	0.11310805
56	0x0c	0.06463317
57	0x02	0.010772195
58	0x31	0.26391876
59	0x0a	0.053860974
60	0xf2	-0.07540536
61	0x04	0.02154439
62	0xe6	-0.14003853
63	0x02	0.010772195
64	0x14	0.10772195
65	0x00	0.0
66	0x12	0.096949756
67	0xf5	-0.05924707
68	0x16	0.11849414
69	0x0b	0.05924707
70	0xf9	-0.03770268
71	0x2c	0.23698828
72	0x0f	0.08079146
73	0xfc	-0.02154439
74	0x15	0.11310805
75	0xf3	-0.07001927
76	0x2e	0.24776047
77	0xe9	-0.12388024
78	0x10	0.08617756
79	0xf6	-0.053860974
80	0xe2	-0.16158292
81	0x02	0.010772195
82	0xe4	-0.15081072
83	0x17	0.12388024
84	0x14	0.10772195
85	0x04	0.02154439
86	0x1e	0.16158292
87	0x1c	0.15081072
88	0xfb	-0.026930487
89	0x01	0.0053860974
90	0xe9	-0.12388024
91	0x24	0.19389951
92	0x11	0.09156366
93	0xf0	-0.08617756
94	0x1c	0.15081072
95	0xee	-0.096949756
96	0x0b	0.05924707
97	0x3d	0.32855195
98	0x2e	0.24776047
99	0x08	0.04308878
100	0xf5	-0.05924707
101	0x1f	0.16696902
102	0x05	0.026930487
103	0xe8	-0.12926634
104	0x08	0.04308878
105	0xfb	-0.026930487
106	0x3e	0.33393803
107	0x31	0.26391876
108	0xe5	-0.14542463
109	0x20	0.17235512
110	0x0d	0.07001927
111	0x10	0.08617756
112	0xf9	-0.03770268
113	0xf9	-0.03770268
114	0x01	0.0053860974
115	0xff	-0.0053860974
116	0x06	0.032316584
117	0x11	0.09156366
118	0x3d	0.32855195
119	0xdf	-0.17774121
120	0xe4	-0.15081072
121	0x1c	0.15081072
122	0x22	0.18312731
123	0x47	0.3824129
124	0x11	0.09156366
125	0xe2	-0.16158292
126	0xdc	-0.19389951
127	0x17	0.12388024
128	0x1d	0.15619682
129	0xde	-0.18312731
130	0xe0	-0.17235512
131	0x2a	0.2262161
132	0x3c	0.32316583
133	0x2e	0.24776047
134	0xe5	-0.14542463
135	0x1a	0.14003853
136	0xfc	-0.02154439
137	0x0c	0.06463317
138	0x0f	0.08079146
139	0x15	0.11310805
140	0xe5	-0.14542463
141	0x12	0.096949756
142	0x12	0.096949756
143	0x35	0.28546315
144	0x1a	0.14003853
145	0xee	-0.096949756
146	0xfe	-0.010772195
147	0x0d	0.07001927
148	0x12	0.096949756
149	0x05	0.026930487
150	0x34	0.28007707
151	0x10	0.08617756
152	0xf9	-0.03770268
153	0x3c	0.32316583
154	0xf0	-0.08617756
155	0x00	0.0
156	0x13	0.10233585
157	0x16	0.11849414
158	0x06	0.032316584
159	0x3e	0.33393803
160	0x1e	0.16158292
161	0xc4	-0.32316583
162	0x06	0.032316584
163	0xdd	-0.18851341
164	0x06	0.032316584
165	0x03	0.016158292
166	0xf8	-0.04308878
167	0x14	0.10772195
168	0x36	0.29084927
169	0x12	0.096949756
170	0xe3	-0.15619682
171	0x00	0.0
172	0x0c	0.06463317
173	0x2b	0.23160219
174	0xff	-0.0053860974
175	0x07	0.03770268
176	0xee	-0.096949756
177	0x06	0.032316584
178	0x19	0.13465244
179	0xea	-0.11849414
180	0xd7	-0.22083
181	0x3a	0.31239364
182	0x20	0.17235512
183	0x17	0.12388024
184	0x55	0.45781827
185	0xff	-0.0053860974
186	0x1d	0.15619682
187	0xf8	-0.04308878
188	0xfe	-0.010772195
189	0x09	0.048474878
190	0xf4	-0.06463317
191	0xfd	-0.016158292
192	0x3b	0.31777975
193	0xf9	-0.03770268
194	0x0f	0.08079146
195	0x10	0.08617756
196	0xf0	-0.08617756
197	0xf6	-0.053860974
198	0x0d	0.07001927
199	0x0e	0.07540536
200	0xf8	-0.04308878
201	0x02	0.010772195
202	0x3c	0.32316583
203	0xe9	-0.12388024
204	0x32	0.26930487
205	0xdf	-0.17774121
206	0xfd	-0.016158292
207	0xdf	-0.17774121
208	0x02	0.010772195
209	0x1c	0.15081072
210	0x10	0.08617756
211	0xee	-0.096949756
212	0x17	0.12388024
213	0x0c	0.06463317
214	0x1a	0.14003853
215	0x4f	0.4255017
216	0x06	0.032316584
217	0x12	0.096949756
218	0x03	0.016158292
219	0x4d	0.4147295
220	0xfb	-0.026930487
221	0xf1	-0.08079146
222	0x1a	0.14003853
223	0xe6	-0.14003853
224	0xdf	-0.17774121
225	0x30	0.25853267
226	0x23	0.18851341
227	0x47	0.3824129
228	0xf3	-0.07001927
229	0x24	0.19389951
230	0xf3	-0.07001927
231	0x07	0.03770268
232	0xfe	-0.010772195
233	0x02	0.010772195
234	0x08	0.04308878
235	0x14	0.10772195
236	0xf9	-0.03770268
237	0x17	0.12388024
238	0xef	-0.09156366
239	0xfd	-0.016158292
240	0x0f	0.08079146
241	0xf9	-0.03770268
242	0x18	0.12926634
243	0xe9	-0.12388024
244	0xfd	-0.016158292
245	0x1a	0.14003853
246	0x49	0.3931851
247	0xce	-0.26930487
248	0x15	0.11310805
249	0x1e	0.16158292
250	0xf1	-0.08079146
251	0x28	0.2154439
252	0x41	0.35009632
253	0xfc	-0.02154439
254	0x01	0.0053860974
255	0x1f	0.16696902

tfl.pseudo_qconst1 i1 [128, 34] scale=0.0061558736 zero_point=0
0	0x06	0.03693524
1	0xf1	-0.09233811
2	0x06	0.03693524
3	0xfa	-0.03693524
4	0x0e	0.08618223
5	0xee	-0.11080573
6	0xee	-0.11080573
7	0x1d	0.17852034
8	0xe6	-0.16005272
9	0x00	0.0
10	0xfa	-0.03693524
11	0xf9	-0.043091115
12	0x10	0.09849398
13	0x1c	0.17236446
14	0xe3	-0.17852034
15	0xfe	-0.012311747
16	0x0a	0.06155874
17	0xe8	-0.14774096
18	0xeb	-0.12927334
19	0x1b	0.1662086
20	0xfd	-0.01846762
21	0xf4	-0.07387048
22	0xea	-0.13542922
23	0x0f	0.09233811
24	0xf5	-0.06771461
25	0xfe	-0.012311747
26	0x16	0.13542922
27	0xf0	-0.09849398
28	0xe6	-0.16005272
29	0xf5	-0.06771461
30	0xe3	-0.17852034
31	0x0c	0.07387048
32	0x1f	0.19083208
33	0x09	0.055402864
34	0xf8	-0.04924699
35	0xee	-0.11080573
36	0xfd	-0.01846762
37	0xe9	-0.1415851
38	0x0f	0.09233811
39	0xf3	-0.08002636
40	0x06	0.03693524
41	0x11	0.10464985
42	0x04	0.024623495
43	0x21	0.20314384
44	0xce	-0.30779368
45	0xf2	-0.08618223
46	0x23	0.21545558
47	0x19	0.15389684
48	0xd5	-0.26470256
49	0xee	-0.11080573
50	0x2a	0.25854668
51	0x15	0.12927334
52	0x10	0.09849398
53	0x12	0.11080573
54	0x08	0.04924699
55	0x16	0.13542922
56	0xff	-0.0061558736
57	0x27	0.24007908
58	0xf1	-0.09233811
59	0xb6	-0.45553464
60	0x17	0.1415851
61	0x11	0.10464985
62	0xc5	-0.36319655
63	0xf9	-0.043091115
64	0x35	0.3262613
65	0xf0	-0.09849398
66	0xb9	-0.43706703
67	0xee	-0.11080573
68	0xe1	-0.19083208
69	0xed	-0.1169616
70	0xf2	-0.08618223
71	0x0d	0.08002636
72	0x15	0.12927334
73	0x0b	0.06771461
74	0x05	0.03077937
75	0x14	0.12311748
76	0xf1	-0.09233811
77	0x0f	0.09233811
78	0xe5	-0.1662086
79	0x0a	0.06155874
80	0xf2	-0.08618223
81	0x16	0.13542922
82	0x06	0.03693524
83	0xe2	-0.18467622
84	0x07	0.043091115
85	0x16	0.13542922
86	0xea	-0.13542922
87	0x0a	0.06155874
88	0xe1	-0.19083208
89	0xf3	-0.08002636
90	0x12	0.11080573
91	0x04	0.024623495
92	0x02	0.012311747
93	0x14	0.12311748
94	0x0b	0.06771461
95	0x0e	0.08618223
96	0x15	0.12927334
97	0xf0	-0.09849398
98	0x14	0.12311748
99	0x00	0.0
100	0x10	0.09849398
101	0x10	0.09849398
102	0xe8	-0.14774096
103	0x10	0.09849398
104	0xe9	-0.1415851
105	0xe6	-0.16005272
106	0x19	0.15389684
107	0xf6	-0.06155874
108	0x28	0.24623495
109	0xec	-0.12311748
110	0x0a	0.06155874
111	0xe2	-0.18467622
112	0x2c	0.27085844
113	0x18	0.14774096
114	0xd4	-0.27085844
115	0x15	0.12927334
116	0x0a	0.06155874
117	0x09	0.055402864
118	0xbe	-0.40628767
119	0x14	0.12311748
120	0x02	0.012311747
121	0xee	-0.11080573
122	0xf2	-0.08618223
123	0xce	-0.30779368
124	0x2e	0.2831702
125	0xfa	-0.03693524
126	0xe4	-0.17236446
127	0x0a	0.06155874
128	0x05	0.03077937
129	0xf0	-0.09849398
130	0x42	0.40628767
131	0x07	0.043091115
132	0x81	-0.781796
133	0xef	-0.10464985
134	0x72	0.7017696
135	0x18	0.14774096
136	0xfb	-0.03077937
137	0x07	0.043091115
138	0x06	0.03693524
139	0xf0	-0.09849398
140	0x08	0.04924699
141	0xf4	-0.07387048
142	0x22	0.2092997
143	0x1a	0.16005272
144	0x22	0.2092997
145	0xff	-0.0061558736
146	0x17	0.1415851
147	0x06	0.03693524
148	0xd0	-0.29548192
149	0xfb	-0.03077937
150	0x2d	0.27701432
151	0x37	0.33857304
152	0xdb	-0.22776732
153	0xd5	-0.26470256
154	0xf9	-0.043091115
155	0xcb	-0.3262613
156	0xcd	-0.31394956
157	0xe5	-0.1662086
158	0x2e	0.2831702
159	0xfd	-0.01846762
160	0xc3	-0.37550828
161	0x0e	0.08618223
162	0x0f	0.09233811
163	0xec	-0.12311748
164	0x2e	0.2831702
165	0xe8	-0.14774096
166	0xc7	-0.3508848
167	0x07	0.043091115
168	0x5e	0.57865214
169	0x17	0.1415851
170	0x0a	0.06155874
171	0xf0	-0.09849398
172	0x06	0.03693524
173	0xf3	-0.08002636
174	0xf8	-0.04924699
175	0xf9	-0.043091115
176	0x1e	0.18467622
177	0xf1	-0.09233811
178	0xfa	-0.03693524
179	0x07	0.043091115
180	0x35	0.3262613
181	0x17	0.1415851
182	0xd5	-0.26470256
183	0xfd	-0.01846762
184	0xf4	-0.07387048
185	0x22	0.2092997
186	0xe9	-0.1415851
187	0xf5	-0.06771461
188	0xf3	-0.08002636
189	0xcb	-0.3262613
190	0xe5	-0.1662086
191	0xd4	-0.27085844
192	0x07	0.043091115
193	0xe1	-0.19083208
194	0xd2	-0.2831702
195	0x31	0.3016378
196	0x01	0.0061558736
197	0x0d	0.08002636
198	0x3b	0.36319655
199	0x0e	0.08618223
200	0x95	-0.6586785
201	0xf6	-0.06155874
202	0x5f	0.584808
203	0x0c	0.07387048
204	0x12	0.11080573
205	0x15	0.12927334
206	0x08	0.04924699
207	0x08	0.04924699
208	0xf9	-0.043091115
209	0x18	0.14774096
210	0xec	-0.12311748
211	0xe6	-0.16005272
212	0x06	0.03693524
213	0xed	-0.1169616
214	0xe9	-0.1415851
215	0x07	0.043091115
216	0x2d	0.27701432
217	0x1c	0.17236446
218	0xd7	-0.25239083
219	0xce	-0.30779368
220	0x1c	0.17236446
221	0xf5	-0.06771461
222	0x0b	0.06771461
223	0x35	0.3262613
224	0x14	0.12311748
225	0x18	0.14774096
226	0xf0	-0.09849398
227	0x0a	0.06155874
228	0x20	0.19698796
229	0xc6	-0.35704067
230	0xe1	-0.19083208
231	0x15	0.12927334
232	0xe7	-0.15389684
233	0xeb	-0.12927334
234	0x50	0.4924699
235	0xfe	-0.012311747
236	0x8a	-0.7263931
237	0xee	-0.11080573
238	0xfe	-0.012311747
239	0xe6	-0.16005272
240	0x00	0.0
241	0x04	0.024623495
242	0x0e	0.08618223
243	0x21	0.20314384
244	0x09	0.055402864
245	0x04	0.024623495
246	0x06	0.03693524
247	0xfd	-0.01846762
248	0x11	0.10464985
249	0x11	0.10464985
250	0xe7	-0.15389684
251	0x11	0.10464985
252	0x1f	0.19083208
253	0x30	0.29548192
254	0xfd	-0.01846762
255	0x06	0.03693524
