Computer_Vision/Tensorflow/models/P1toP10model.tflite (tflite, 26024 bytes, 6 tensors)

model/dense_2/MatMul f4 [10, 64]
0.15057449 -1.1052936 -2.1174798 -1.9370434 0.6321475 0.63550496 0.35200462 -0.18813819
0.2074069 -1.6607298 -2.0369942 -2.4914699 -0.30510497 0.34815302 -1.2828953 -0.46947235
0.30880913 -0.54126036 -0.039083086 0.47378045 0.3360509 -0.36545733 -2.9085045 -0.19988072
0.02689836 -0.77744234 0.16159785 -0.23843682 -1.4586114 -0.11615139 0.10823104 -2.4027493
0.12294778 -2.9564939 -0.15864486 0.004828135 0.5148013 0.15985817 -0.09539284 0.216585
-0.22420126 -2.001418 -0.9771713 -2.1921656 -0.42737907 0.3283397 -2.315578 0.11320872
0.2516594 -0.24716638 0.027119834 0.31555784 -2.8250422 -0.36423635 0.34342256 -0.51291597
0.37056047 0.25573653 0.7817907 0.1447286 -1.9510146 -2.0371733 -0.22939856 0.35084715
-1.8145335 0.21883516 -0.19134714 0.09434299 0.08856089 -0.37301654 -1.7605245 0.19508989
-1.0523258 0.17858149 0.2187402 0.14380816 0.23306064 -0.5838113 -0.8562593 1.3917127
0.22738038 0.5055854 1.0659223 -0.47174385 0.21619532 -0.21226509 0.11546059 0.14818014
0.18074647 -1.3022891 -1.8301169 1.0542064 0.33879298 0.5342289 -2.3093293 0.22126175
-2.5731866 0.11134476 1.6025265 0.2678399 0.12764174 0.07271653 -0.26138532 -2.7723296
0.27322474 0.31908143 0.118914984 -0.21590792 -0.30890062 -0.7972257 0.31716588 1.7495723
-2.8610759 -0.76253194 -2.5505948 -0.9524392 0.21981007 0.6837533 -0.9051475 1.1037738
-0.57975954 -1.8515632 -0.058574982 -2.9511845 0.04363319 -0.45358878 0.1828215 -0.9702404
0.10576494 -1.6638138 0.24246022 0.214383 0.5085278 0.58388597 0.34647134 -0.32674193
0.17231865 -1.9910821 -1.2831653 -1.1499426 -1.0882764 0.302064 0.8997915 -0.040410172
-0.1616169 0.16235995 -0.30250612 0.3162559 -0.123623945 0.5349077 -1.2976017 -0.49230286
-0.36982492 0.399088 0.15926915 -0.9613232 0.06265482 -0.4541554 0.09777175 -0.69149476
0.12822692 -1.3713812 -0.3523022 -0.18323228 -0.127744 0.056955907 -0.10781836 0.20437779
-0.8391891 0.44203594 -1.6509709 0.34645265 -0.5468891 -0.08698983 0.26146236 -0.15958925
0.22362937 -0.21547161 0.048718106 0.07597625 -1.1507297 -0.71011204 0.3187869 -0.40195262
0.26670462 0.24554588 0.63724023 0.1603266 0.26375666 0.36530614 -0.3531598 0.3532073
0.059514917 0.07614616 0.27432513 0.27786878 -0.8030652 -0.96605694 0.29538736 -2.4675448
0.07206341 0.19299889 0.14914045 0.11089736 -1.5330147 0.26218334 0.58854556 -0.4479362
-1.790971 0.21062903 -1.1918755 -2.0111954 -1.5557469 -0.45164615 0.11222997 -1.9987007
-1.963473 0.3370453 0.097567014 -1.3123362 -2.9496024 -0.2598947 0.052269675 -1.0347518
0.09304396 0.022542097 -0.6825404 -2.8602304 -1.7443131 -1.8614076 0.12094467 0.182348
-0.72100365 -0.739059 0.1791024 0.32151806 -1.0078441 -1.345879 -1.1907204 -0.24495314
0.20688374 -1.3400537 0.036860414 -1.3131869 0.18303248 -1.7255998 0.20429036 -0.53052783
-1.7584454 0.22513081 -1.3894668 0.11043491 0.31363195 0.33942935 -2.2264297 0.22987652
00000000: 3330 1a3e 437a 8dbf ca84 07c0 0af1 f7bf
00000010: 6bd4 213f 74b0 223f f339 b43e 4ca7 40be
00000020: 7962 543e cb92 d4bf 1d5e 02c0 3e74 1fc0
00000030: b836 9cbe 1d41 b23e ea35 a4bf ae5e f0be
00000040: 3b1c 9e3e 0a90 0abf 9615 20bd 5a93 f23e
00000050: dd0e ac3e 391d bbbe f024 3ac0 88ad 4cbe
00000060: f359 dc3c 7606 47bf e879 253e c828 74be
00000070: c7b3 babf c8e0 edbd 3ca8 dd3d a5c6 19c0
00000080: 0ccc fb3d 3237 3dc0 cc73 22be 5535 9e3b
00000090: 05ca 033f dcb1 233e 525d c3bd 75c8 5d3e
000000a0: 0495 65be 3c17 00c0 e627 7abf 714c 0cc0
000000b0: 6ed1 dabe 241c a83e 6e32 14c0 f9d9 e73d
000000c0: 80d9 803e 2f19 7dbe 6a2a de3c cc90 a13e
000000d0: 7ecd 34c0 307d babe 15d5 af3e 764e 03bf
000000e0: 1aba bd3e e6ef 823e 6f23 483f bc33 143e
000000f0: d9ba f9bf 0c61 02c0 75e7 6abe 3da2 b33e
00000100: a242 e8bf 5316 603e 81f0 43be e636 c13d
00000110: 695f b53d 06fc bebe de58 e1bf a5c5 473e
00000120: 9db2 86bf 11de 363e 6efd 5f3e 7242 133e
00000130: 73a7 6e3e a874 15bf cf33 5bbf a423 b23f
00000140: 67d6 683e 0b6e 013f 2470 883f 6988 f1be
00000150: 4e62 5d3e 055c 59be 9a76 ec3d 89bc 173e
00000160: 9a15 393e 69b1 a6bf 4541 eabf 3cf0 863f
00000170: 4676 ad3e 3ac3 083f 0dcc 13c0 7192 623e
00000180: 17af 24c0 b908 e43d 971f cd3f 5022 893e
00000190: 84b4 023e 67ec 943d 4cd4 85be d96d 31c0
000001a0: 1de4 8b3e a45e a33e b389 f33d f716 5dbe
000001b0: 3928 9ebe fc16 4cbf 9163 a23e fcf1 df3f
000001c0: de1b 37c0 4b35 43bf f23c 23c0 0ed3 73bf
000001d0: e415 613e 750a 2f3f bfb7 67bf 7648 8d3f
000001e0: 1f6b 14bf 0600 edbf 52ec 6fbd 35e0 3cc0
000001f0: b7b8 323d ca3c e8be 8f35 3b3e ad61 78bf
00000200: 4a9b d83d daf7 d4bf 7e47 783e 3887 5b3e
00000210: e12e 023f 8d79 153f b164 b13e b84a a7be
00000220: 4d74 303e c7db febf c33e a4bf 5231 93bf
00000230: a44c 8bbf 22a8 9a3e bc58 663f 2385 25bd
00000240: e77e 25be b041 263e 15e2 9abe 4bec a13e
00000250: 8d2e fdbd b6ef 083f d017 a6bf 1f0f fcbe
00000260: b159 bdbe 4355 cc3e 7417 233e 4719 76bf
00000270: 2c51 803d 0e87 e8be 8e3c c83d cd05 31bf
00000280: eb4d 033e 6b89 afbf f460 b4be 3ea1 3bbe
00000290: 53cf 02be 994a 693d dfcf dcbd 6948 513e
000002a0: 19d5 56bf 8952 e23e 0453 d3bf 3e62 b13e
000002b0: ed00 0cbf b927 b2bd 65de 853e 5d6b 23be
000002c0: 19ff 643e 97a4 5cbe a38c 473d 7099 9b3d
000002d0: 1c4b 93bf e7c9 35bf 0938 a33e bccc cdbe
000002e0: 828d 883e 6170 7b3e 2d22 233f a82c 243e
000002f0: 1d0b 873e 6809 bb3e 5cd1 b4be 96d7 b43e
00000300: eac5 733d 85f2 9b3d 5874 8c3e d144 8e3e
00000310: ae95 4dbf 824f 77bf 033d 973e 41ec 1dc0
00000320: fb95 933d 80a1 453e 46b8 183e 281e e33d
00000330: d339 c4bf e53c 863e ecaa 163f e557 e5be
00000340: 8a3e e5bf 23af 573e 608f 98bf 6db7 00c0
00000350: b722 c7bf 2a3e e7be d4d8 e53d 6dd5 ffbf
00000360: 1553 fbbf 3491 ac3e 37d1 c73d a2fa a7bf
00000370: 49c6 3cc0 eb10 85be ba18 563d bf72 84bf
00000380: d58d be3d 34aa b83c f8ba 2ebf 040e 37c0
00000390: a745 dfbf 9b42 eebf d7b1 f73d 6fb9 3a3e
000003a0: b293 38bf f832 3dbf 9f66 373e 049e a43e
000003b0: 0901 81bf c345 acbf 8769 98bf ffd4 7abe
000003c0: 55d9 533e e186 abbf f2fa 163d 8216 a8bf
000003d0: de6c 3b3e 74e0 dcbf 7e31 513e acd0 07bf
000003e0: bd14 e1bf b188 663e 0cda b1bf b32b e23d
000003f0: 5e94 a03e afc9 ad3e d37d 0ec0 c064 6b3e

model/dense_2/BiasAdd/ReadVariableOp/resource f4 [10]
0.38082075 -0.21171263 -0.19490628 0.3621334 -0.008098598 -0.0952109 0.3304059 0.05816101
-0.1793131 -0.34584534
00000000: f0fa c23e 32cb 58be 8395 47be 8d69 b93e
00000010: fbaf 04bc effd c2bd f62a a93e 3d3a 6e3d
00000020: da9d 37be a412 b1be

model/dense_1/BiasAdd/ReadVariableOp/resource f4 [64]
0.4666311 0.19626698 0.11566291 0.05544739 0.026275754 0.051357176 0.3742298 0.20980717
0.62185174 0.046327166 0.04011994 0.08219546 -0.03718721 0.3491965 0.05352949 0.1518345
0.07658223 0.24837431 0.08206965 -0.0012342273 0.02388792 -0.013903179 0.062547065 0.15443717
0.00045200787 0.19414727 0.5367909 0.21212694 0.045698363 -0.069687024 0.17447391 0.0353495
0.18840457 0.061823703 0.18541339 0.18010715 0.11384028 0.27939692 -0.06783989 -0.023268886
0.06905897 0.011949994 0.11654778 0.09478926 0.26504454 0.1629807 -0.1087802 0.15863462
0.08939193 0.069948494 0.055545878 0.06607576 0.054110996 0.05653595 0.41441303 0.23596565
0.19589958 0.22732233 0.06300324 0.095417015 0.0816739 0.15861273 0.18842307 0.4068772
00000000: 46ea ee3e 36fa 483e ade0 ec3d cd1c 633d
00000010: 4040 d73c e75b 523d 0c9b bf3e b1d7 563e
00000020: ad31 1f3f 8ec1 3d3d ce54 243d 1856 a83d
00000030: 9e51 18bd e2c9 b23e bd41 5b3d 817a 1b3e
00000040: 25d7 9c3d d655 7e3e 2214 a83d ccc5 a1ba
00000050: 99b0 c33c 29ca 63bc ad18 803d c724 1e3e
00000060: 78fb ec39 8bce 463e 216b 093f ce37 593e
00000070: 352e 3b3d 12b8 8ebd 4aa9 323e a3ca 103d
00000080: 21ed 403e da3a 7d3d 02dd 3d3e 026e 383e
00000090: 1825 e93d 1d0d 8f3e a4ef 8abd 649e bebc
000000a0: ca6e 8d3d e8c9 433c 9ab0 ee3d df20 c23d
000000b0: ebb3 873e 6ae4 263e 27c8 debd 1d71 223e
000000c0: 1e13 b73d 2841 8f3d 1384 633d ba52 873d
000000d0: 7ea3 5d3d 3e92 673d f22d d43e fba0 713e
000000e0: e699 483e 2fc7 683e d807 813d ff69 c33d
000000f0: a544 a73d 606b 223e faf1 403e 3552 d03e

model/dense/BiasAdd/ReadVariableOp/resource f4 [128]
-0.0074261897 -0.0060097086 -0.0122326715 -0.04654886 0.0 0.020310573 0.038692437 0.024050644
-0.01235778 -0.07474904 -0.0049691168 0.0 0.007015963 -0.0068860934 0.0 -0.0010538979
0.0053727324 -0.038432 -0.003701467 0.0081554055 0.13199434 -0.044652615 -0.08397117 -0.15779224
0.008924014 0.060656417 0.021637486 0.034362767 0.026036905 0.0 0.045390725 0.0045695305
-0.008145208 0.080488145 -0.00023076618 -0.02138269 -0.016239421 -0.024353158 -0.07954251 0.0
-0.0055573876 -0.042705446 -0.081473 0.08098151 0.0 0.0 0.0 -0.0799789
-0.019712579 -0.031701308 -0.039311018 -0.016892621 0.0 0.018359238 -0.010838289 -0.028940529
-0.04589127 -0.027882488 0.06524646 0.002779223 -0.0031741748 -0.03584974 0.004124317 -0.004477169
0.073990986 0.0 -0.015128103 -0.016632235 -0.011986532 0.0036291627 -0.010274942 0.0
-0.022078378 0.037034463 0.1169966 -0.010348289 -0.04691053 -0.0458969 -0.046773545 -0.058738045
-0.009514605 0.011294355 0.02081704 -0.0060881968 -0.09149853 0.030074012 0.03178954 0.09566523
-0.056908906 -0.0124173025 -0.007760321 0.014697263 0.0 -0.0032213943 -0.011745698 0.06997829
0.004037629 0.0 -0.019144585 -0.005558277 -0.005145155 0.03994644 -0.029425483 -0.013841916
0.12981392 -0.008626916 0.0 -0.005943558 -0.06629948 -0.023683777 0.0005206057 0.020740012
0.0 0.0 -0.00027169328 0.0017773153 0.018008564 0.018240413 -0.0049264315 -0.04187661
-0.008458412 -0.12138849 0.036053266 -0.035395745 0.0017210302 -0.057110574 0.07503534 -0.0071103633
00000000: 6557 f3bb 17ed c4bb 8b6b 48bc 04aa 3ebd
00000010: 0000 0000 5c62 a63c f67b 1e3d db05 c53c
00000020: 4978 4abc 0616 99bd f9d3 a2bb 0000 0000
00000030: 2ae6 e53b bda4 e1bb 0000 0000 f222 8aba
00000040: bf0d b03b df6a 1dbd 5094 72bb 409e 053c
00000050: 8629 073e a9e5 36bd 14f9 abbd 4a94 21be
00000060: 0736 123c dd72 783d 1941 b13c f9bf 0c3d
00000070: 594b d53c 0000 0000 a0eb 393d 00bc 953b
00000080: 7a73 05bc f8d6 a43d d3f9 71b9 c02a afbc
00000090: 8908 85bc 4680 c7bc 2fe7 a2bd 0000 0000
000000a0: bf1a b6bb e8eb 2ebd 51db a6bd a2d9 a53d
000000b0: 0000 0000 0000 0000 0000 0000 facb a3bd
000000c0: 467c a1bc 3bd9 01bd 9704 21bd 6562 8abc
000000d0: 0000 0000 1d66 963c 1493 31bc b014 edbc
000000e0: 7cf8 3bbd d169 e4bc f09f 853d a023 363b
000000f0: d105 50bb 2dd7 12bd 4725 873b 37b5 92bb
00000100: 9688 973d 0000 0000 dddb 77bc 5340 88bc
00000110: 2963 44bc 3fd7 6d3b 3b58 28bc 0000 0000
00000120: b7dd b4bc 73b1 173d ea9b ef3d df8b 29bc
00000130: 4225 40bd 63fe 3bbd 9e95 3fbd 4e97 70bd
00000140: 25e3 1bbc f50b 393c 7f88 aa3c 7f7f c7bb
00000150: 9563 bbbd c65d f63c c035 023d 22ec c33d
00000160: 5019 69bd f171 4bbc 4a4a febb cacc 703c
00000170: 0000 0000 071e 53bb 0771 40bc c750 8f3d
00000180: 164e 843b 0000 0000 1bd5 9cbc 3522 b6bb
00000190: b098 a8bb e19e 233d b60d f1bc 34c9 62bc
000001a0: f1ed 043e e957 0dbc 0000 0000 2ec2 c2bb
000001b0: 06c8 87bd 7b04 c2bc 4279 083a f5e6 a93c
000001c0: 0000 0000 0000 0000 0e72 8eb9 cef4 e83a
000001d0: b286 933c eb6c 953c e76d a1bb cf86 2bbd
000001e0: 2795 0abc 879a f8bd 97ac 133d 21fb 10bd
000001f0: 3194 e13a c7ec 69bd 21ac 993d 0dfe e8bb

model/dense/MatMul i1 [128, 34] scale=0.018292496 zero_point=0
0.073169984 0.09146248 -0.018292496 0.14633997 0.09146248 0.20121746 0.09146248 0.12804747
0.12804747 0.0 -0.09146248 -0.018292496 0.05487749 -0.10975498 0.073169984 -0.073169984
-0.073169984 -0.036584992 -0.036584992 0.036584992 0.10975498 -0.036584992 0.10975498 -0.16463247
-0.018292496 0.14633997 0.18292496 -0.073169984 0.073169984 0.036584992 0.16463247 -0.018292496
0.09146248 -0.10975498 -0.12804747 0.27438745 -0.036584992 0.018292496 -0.018292496 0.14633997
0.16463247 -0.16463247 -0.29267994 0.09146248 -0.3658499 -0.20121746 0.8414548 -0.29267994
-0.4756049 -0.05487749 0.78657734 0.036584992 -0.21950996 0.40243492 -0.09146248 0.5853599
-0.8414548 0.51218987 0.87803984 -0.31097242 0.18292496 0.21950996 -0.073169984 0.036584992
1.6280321 -0.018292496 -1.7377871 0.25609493 0.05487749 -0.05487749 -0.073169984 -0.073169984
-0.16463247 -0.10975498 0.18292496 0.18292496 0.018292496 0.14633997 0.0 -0.10975498
-0.05487749 0.018292496 -0.16463247 -0.036584992 -0.036584992 -0.05487749 0.10975498 0.05487749
0.0 -0.036584992 0.073169984 -0.073169984 -0.16463247 -0.14633997 0.16463247 0.036584992
-0.10975498 -0.14633997 0.09146248 -0.20121746 -0.018292496 0.16463247 0.14633997 -0.34755743
-0.036584992 -0.38414243 0.036584992 -0.21950996 0.10975498 -0.09146248 -0.21950996 -0.14633997
-0.05487749 0.14633997 -0.21950996 -0.036584992 -0.23780245 0.14633997 0.4207274 0.073169984
0.018292496 0.34755743 -0.05487749 0.073169984 1.0609648 0.0 -0.9695023 0.23780245
1.1158422 -0.25609493 -1.2621822 -0.16463247 1.7377871 0.05487749 -1.4633996 -0.073169984
0.10975498 0.0 -0.10975498 0.05487749 0.036584992 -0.10975498 -0.14633997 0.0
0.09146248 0.12804747 0.036584992 -0.05487749 -0.18292496 -0.073169984 -0.09146248 0.018292496
-0.018292496 0.16463247 -0.036584992 0.0 0.09146248 0.16463247 -0.10975498 0.018292496
0.18292496 -0.14633997 0.18292496 -0.036584992 -0.18292496 -0.018292496 0.16463247 0.018292496
0.018292496 -0.16463247 -0.018292496 -0.018292496 0.12804747 -0.25609493 0.10975498 -0.073169984
-0.10975498 -0.073169984 -0.05487749 -0.12804747 0.5304824 0.31097242 -0.6585299 0.23780245
0.31097242 0.29267994 -0.60365236 -0.018292496 0.31097242 -0.5853599 0.31097242 -0.7499923
1.3902297 -0.67682236 -1.3353522 0.62194484 0.43901992 0.036584992 0.10975498 -0.14633997
-0.8963323 -0.018292496 1.0060873 -0.036584992 0.12804747 0.12804747 -0.073169984 0.018292496
-0.05487749 0.12804747 -0.18292496 0.25609493 0.10975498 0.0 -0.25609493 -0.09146248
0.49389738 -0.21950996 -0.16463247 -0.09146248 0.43901992 -0.05487749 -0.38414243 -0.51218987
0.21950996 -0.51218987 -1.2073047 -0.036584992 1.3719372 0.073169984 -0.8231623 -0.036584992
0.9329173 -0.10975498 -0.4756049 -0.09146248 0.4573124 0.23780245 -0.09146248 -0.036584992
-0.14633997 0.05487749 0.05487749 -0.073169984 0.073169984 -0.14633997 0.10975498 0.09146248
-0.7499923 -0.32926494 0.76828486 -0.14633997 -0.4573124 -0.27438745 0.9329173 -0.10975498
00000000: 0405 ff08 050b 0507 0700 fbff 03fa 04fc
00000010: fcfe fe02 06fe 06f7 ff08 0afc 0402 09ff
00000020: 05fa f90f fe01 ff08 09f7 f005 ecf5 2ef0
00000030: e6fd 2b02 f416 fb20 d21c 30ef 0a0c fc02
00000040: 59ff a10e 03fd fcfc f7fa 0a0a 0108 00fa
00000050: fd01 f7fe fefd 0603 00fe 04fc f7f8 0902
00000060: faf8 05f5 ff09 08ed feeb 02f4 06fb f4f8
00000070: fd08 f4fe f308 1704 0113 fd04 3a00 cb0d
00000080: 3df2 bbf7 5f03 b0fc 0600 fa03 02fa f800
00000090: 0507 02fd f6fc fb01 ff09 fe00 0509 fa01
000000a0: 0af8 0afe f6ff 0901 01f7 ffff 07f2 06fc
000000b0: fafc fdf9 1d11 dc0d 1110 dfff 11e0 11d7
000000c0: 4cdb b722 1802 06f8 cfff 37fe 0707 fc01
000000d0: fd07 f60e 0600 f2fb 1bf4 f7fb 18fd ebe4
000000e0: 0ce4 befe 4b04 d3fe 33fa e6fb 190d fbfe
000000f0: f803 03fc 04f8 0605 d7ee 2af8 e7f1 33fa

model/dense_1/MatMul i1 [64, 128] scale=0.018709337 zero_point=0
0.05612801 0.54257077 -0.13096537 -0.13096537 -0.11225602 -0.11225602 -0.13096537 0.31805873
-0.13096537 -0.28064007 -0.6548268 -0.13096537 0.018709337 -0.20580271 0.05612801 0.37418675
0.22451204 -0.13096537 -0.28064007 0.35547742 0.9167575 0.16838403 -0.13096537 -0.31805873
1.2348163 0.48644277 -0.07483735 -0.05612801 -0.07483735 -0.07483735 0.11225602 -0.26193073
-0.13096537 -0.11225602 0.07483735 0.1496747 0.18709338 -0.018709337 -0.5051521 -0.037418675
-0.09354669 -0.018709337 -0.037418675 -0.037418675 -0.05612801 0.1496747 -0.09354669 0.07483735
-0.16838403 0.0 0.05612801 0.018709337 0.018709337 -0.20580271 1.496747 0.11225602
0.48644277 0.0 0.97288555 0.22451204 -0.1496747 -0.24322139 -0.09354669 -0.07483735
0.9541762 0.0 -0.18709338 0.0 0.05612801 -0.07483735 -0.26193073 0.09354669
0.07483735 0.07483735 1.0290135 -0.05612801 0.0 -0.26193073 0.33676806 0.18709338
-0.5051521 -0.018709337 -0.24322139 0.16838403 -0.037418675 -0.20580271 -0.05612801 1.1599789
0.24322139 1.2161069 0.05612801 -0.31805873 -0.13096537 -0.037418675 -0.28064007 0.07483735
-0.26193073 -0.11225602 -0.1496747 0.1496747 0.0 0.0 0.26193073 0.3928961
1.1225603 -0.20580271 -0.018709337 0.13096537 -0.018709337 -0.16838403 0.07483735 -0.09354669
-0.13096537 0.11225602 0.28064007 -0.3928961 -0.1496747 -0.16838403 -0.20580271 0.13096537
0.28064007 -0.1496747 -0.28064007 -0.018709337 -0.13096537 -0.037418675 0.0 0.11225602
0.13096537 -0.8606295 -0.018709337 -0.18709338 0.037418675 0.43031475 0.05612801 -0.07483735
0.20580271 -0.018709337 0.82321084 0.11225602 0.20580271 0.1496747 0.11225602 -0.7670828
-0.8606295 0.018709337 0.8419202 0.07483735 -0.26193073 -0.037418675 -0.13096537 -0.018709337
-0.72966415 -0.16838403 0.07483735 0.0 -0.037418675 0.05612801 -0.07483735 0.22451204
0.26193073 0.16838403 -0.7857922 -0.037418675 -0.61740816 0.1496747 0.2993494 0.1496747
0.018709337 -0.07483735 -0.26193073 1.0664322 -0.09354669 0.09354669 0.11225602 -0.13096537
-0.16838403 -0.11225602 -0.037418675 0.1496747 0.16838403 0.57998943 -0.89804816 -0.11225602
-0.1496747 0.1496747 -1.1412696 -0.57998943 -0.09354669 0.07483735 0.48644277 0.3928961
-0.57998943 0.09354669 -0.037418675 0.24322139 -0.22451204 0.09354669 0.16838403 -0.05612801
-0.09354669 0.22451204 -0.5051521 -0.13096537 -0.35547742 -0.018709337 -0.26193073 -0.46773344
0.6735361 -0.07483735 0.0 0.0 0.037418675 0.05612801 0.09354669 -0.52386147
-0.1496747 -1.2535256 0.35547742 0.31805873 -0.037418675 0.2993494 0.0 -0.09354669
0.05612801 0.11225602 0.16838403 0.13096537 0.07483735 0.54257077 -0.33676806 -0.7670828
-0.20580271 0.018709337 0.11225602 -1.0477229 -0.1496747 0.16838403 -0.48644277 0.22451204
-0.09354669 0.018709337 -0.6548268 0.57998943 0.11225602 0.71095484 0.07483735 0.0
-0.7483735 -0.20580271 0.97288555 0.11225602 0.20580271 0.07483735 0.18709338 0.1496747
00000000: 031d f9f9 fafa f911 f9f1 ddf9 01f5 0314
00000010: 0cf9 f113 3109 f9ef 421a fcfd fcfc 06f2
00000020: f9fa 0408 0aff e5fe fbff fefe fd08 fb04
00000030: f700 0301 01f5 5006 1a00 340c f8f3 fbfc
00000040: 3300 f600 03fc f205 0404 37fd 00f2 120a
00000050: e5ff f309 fef5 fd3e 0d41 03ef f9fe f104
00000060: f2fa f808 0000 0e15 3cf5 ff07 fff7 04fb
00000070: f906 0feb f8f7 f507 0ff8 f1ff f9fe 0006
00000080: 07d2 fff6 0217 03fc 0bff 2c06 0b08 06d7
00000090: d201 2d04 f2fe f9ff d9f7 0400 fe03 fc0c
000000a0: 0e09 d6fe df08 1008 01fc f239 fb05 06f9
000000b0: f7fa fe08 091f d0fa f808 c3e1 fb04 1a15
000000c0: e105 fe0d f405 09fd fb0c e5f9 edff f2e7
000000d0: 24fc 0000 0203 05e4 f8bd 1311 fe10 00fb
000000e0: 0306 0907 041d eed7 f501 06c8 f809 e60c
000000f0: fb01 dd1f 0626 0400 d8f5 3406 0b04 0a08
