Computer_Vision/Tensorflow/models/pose_classifier.tflite (tflite, 27520 bytes, 6 tensors)

model/dense_2/MatMul f4 [5, 64]
-0.082191885 0.099826425 0.34318548 0.1903614 0.3093791 -0.8556404 -0.6757939 0.4226562
-0.51978374 -0.17818062 -0.16006835 0.2974064 -0.6320951 -0.64194614 -0.49455273 0.29157007
0.28703472 0.2849318 0.47792882 -0.028074946 -0.17668515 -0.2700954 -0.5478112 -0.5923204
-0.41819292 0.27806234 0.38233072 0.14394794 0.11630683 -0.040537573 -0.660055 -0.2610285
-0.557013 -0.5528531 0.24121648 0.30771276 -0.47341496 -0.5446497 -0.58643645 -0.48456445
0.30402893 -0.2745714 -0.31060883 -0.403993 0.46707752 -0.068382666 -0.6154999 -0.31348246
0.32981583 -0.15026158 -0.50610435 -0.43608913 0.27013826 -0.47194657 0.24564523 0.07866111
-0.4692388 0.2879874 -0.4436632 0.19204184 -0.45782986 -0.35152617 -0.18197365 0.26785222
0.3357542 0.36766994 0.23713303 -0.07001547 -0.116227925 0.27052915 0.2641508 -0.5452695
0.11429416 -0.18396406 -0.67163736 -0.30702487 -0.42348135 0.5136514 0.42648324 0.3271315
0.32861614 -0.35785496 -0.00826859 0.13732465 -0.1903522 -0.18636693 -0.7397664 -0.42852622
-0.36145106 0.35736752 -0.025931807 -0.5158633 -0.47675896 -0.3560657 -0.33904976 -0.27357537
0.26016217 -0.20098111 -0.6223722 0.3228703 0.22508067 0.17963557 -0.7057611 0.13958302
-0.31369096 0.4578982 0.42490804 -0.5058849 -0.098622076 -0.12135081 0.40581688 -0.08643095
-0.49124473 -0.08728639 -0.06651059 -0.1652868 -0.48087746 -0.29887044 -0.6242432 -0.08543709
-0.25325707 -0.4074346 0.013679346 -0.6413129 0.23621042 0.43984714 -0.099670514 -0.36123583
-0.02691633 -0.44665375 -0.626343 -0.52383524 -0.53434896 -0.38784903 -0.71352345 0.31434363
-0.15752658 -1.0271277 0.36781216 -0.6752235 0.29334652 -0.5399062 -0.43761405 -0.8090465
-0.68331856 -0.68332183 -0.5959066 0.14024672 0.40843686 0.13256043 -0.055141922 0.4388681
0.2915242 0.060143813 -0.1875933 -0.82894516 -0.7084827 0.13146004 -0.5694252 0.34587124
0.25498843 0.38439322 -0.33849692 -0.73515713 0.29974127 -0.037703823 0.26489794 -0.6087692
0.29920182 -0.43633392 0.028097302 -0.14366165 0.29595673 0.4806914 -0.52606905 -0.40452167
0.3486203 0.49388427 0.4988557 0.37011755 -0.6612522 0.13745946 0.1557087 0.63419896
-0.498922 -0.5665615 0.17445877 -0.70270187 -0.42062497 0.06164198 0.4989472 0.09935854
0.5090287 -0.894402 -0.57261753 -0.7045799 0.23360664 0.34548575 0.23731619 0.08478982
-0.80250573 -0.11567834 -0.24917327 0.32370442 0.56756526 -0.02765296 0.52957714 0.26745212
0.17146015 0.3416478 0.24155977 -1.1239232 -0.12011446 -0.9020169 0.1338196 -0.048717197
-0.78137493 -0.79966927 -0.5854328 0.13457222 0.19155821 -0.62324494 0.5226586 0.41787878
-0.2952375 -0.58942074 0.31029627 0.154105 -0.4117999 -0.6965445 0.32601032 -0.16665572
-0.7508436 0.34312055 -0.7492099 0.54240125 -0.20723388 -0.041244198 -0.43914458 -0.31791335
-0.12864742 -0.41283512 -0.10239284 -0.059029505 0.06285967 -0.5882028 -0.6035348 0.02411022
0.47982454 0.28688413 -0.631819 0.17787774 -0.5262333 -0.33074975 -0.15617165 -0.39001727
00000000: 3854 a8bd cc71 cc3d 02b6 af3e 19ee 423e
00000010: f066 9e3e 400b 5bbf d400 2dbf 6566 d83e
00000020: 8c10 05bf fb74 36be f5e8 23be a745 983e
00000030: fcd0 21bf 9556 24bf 0436 fdbe ac48 953e
00000040: 37f6 923e 95e2 913e 16b3 f43e 6efd e5bc
00000050: f4ec 34be f249 8abe 5b3d 0cbf 4fa2 17bf
00000060: 621d d6be 305e 8e3e dac0 c33e 1767 133e
00000070: 4632 ee3d ba0a 26bd 5df9 28bf 87a5 85be
00000080: 6798 0ebf c887 0dbf 7401 773e 878c 9d3e
00000090: 7263 f2be 2a6e 0bbf b320 16bf d518 f8be
000000a0: aea9 9b3e 9f94 8cbe 1f08 9fbe 2cd8 cebe
000000b0: c924 ef3e 360c 8cbd 6791 1dbf c680 a0be
000000c0: 9fdd a83e 2cde 19be 0e90 01bf 1347 dfbe
000000d0: 904f 8a3e fba2 f1be 6c8a 7b3e 1319 a13d
000000e0: 1140 f0be 1673 933e d327 e3be 9ea6 443e
000000f0: ad68 eabe 3dfb b3be 4d57 3abe ed23 893e
00000100: f9e7 ab3e 3c3f bc3e 00d3 723e 4564 8fbd
00000110: e808 eebd cc82 8a3e c63e 873e c896 0bbf
00000120: 0e13 ea3d 1361 3cbe 6df0 2bbf 5d32 9dbe
00000130: 8cd2 d8be a87e 033f 035c da3e c87d a73e
00000140: 6040 a83e c438 b7be fb78 07bc d59e 0c3e
00000150: b0eb 42be f9d6 3ebe 5561 3dbf ca67 dbbe
00000160: 1d10 b9be e0f8 b63e f16e d4bc 9e0f 04bf
00000170: c019 f4be 3e4e b6be ee97 adbe 1212 8cbe
00000180: fa33 853e fecd 4dbe c953 1fbf 424f a53e
00000190: 8c7b 663e 63f2 373e c2ac 34bf daee 0e3e
000001a0: 1a9c a0be a271 ea3e 8c8d d93e ac81 01bf
000001b0: 5ffa c9bd c686 f8bd 3bc7 cf3e b602 b1bd
000001c0: 6e84 fbbe 35c3 b2bd b436 88bd f140 29be
000001d0: 9235 f6be 8c05 99be 67ce 1fbf a4f9 aebd
000001e0: e9aa 81be 459b d0be 561f 603c 152d 24bf
000001f0: 25e1 713e a533 e13e 0e20 ccbd e7f3 b8be
00000200: a37f dcbc cdaf e4be 0458 20bf 111a 06bf
00000210: 18cb 08bf 2694 c6be 79a9 36bf a6f1 a03e
00000220: a64e 21be ec78 83bf e051 bc3e 73db 2cbf
00000230: 8431 963e 4b37 0abf f30e e0be ac1d 4fbf
00000240: f7ed 2ebf 2eee 2ebf 568d 18bf d69c 0f3e
00000250: a31e d13e ecbd 073e 7fdc 61bd 52b3 e03e
00000260: a942 953e 5c59 763d 7518 40be c035 54bf
00000270: 1f5f 35bf 769d 063e dac5 11bf 0916 b13e
00000280: d88d 823e 30cf c43e 784f adbe 4233 3cbf
00000290: b077 993e 536f 1abd b4a0 873e 4cd8 1bbf
000002a0: fb30 993e 2967 dfbe 502c e63c 0a1c 13be
000002b0: a487 973e 2f1d f63e 76ac 06bf 771d cfbe
000002c0: 5c7e b23e 66de fc3e 046a ff3e 0c80 bd3e
000002d0: d347 29bf 2cc2 0c3e 1a72 1f3e dd5a 223f
000002e0: b472 ffbe 2d0a 11bf 52a5 323e 45e4 33bf
000002f0: 285c d7be 4d7c 7c3d 0276 ff3e 7d7c cb3d
00000300: b44f 023f 88f7 64bf 1097 12bf 595f 34bf
00000310: 9436 6f3e 82e3 b03e 0403 733e 49a6 ad3d
00000320: 0471 4dbf c4e8 ecbd 4727 7fbe 96bc a53e
00000330: f54b 113f 7688 e2bc 5e92 073f 7cef 883e
00000340: 4093 2f3e 76ec ae3e 725b 773e b7dc 8fbf
00000350: 92fe f5bd 94ea 66bf 0108 093e af8b 47bd
00000360: 3008 48bf 20b7 4cbf edde 15bf 4dcd 093e
00000370: d627 443e fb8c 1fbf f4cc 053f 35f4 d53e
00000380: 5f29 97be 47e4 16bf 27df 9e3e b3cd 1d3e
00000390: 70d7 d2be be50 32bf d3ea a63e cca7 2abe
000003a0: 4937 40bf 7fad af3e 38cc 3fbf cfda 0a3f
000003b0: 1e35 54be adef 28bd 8fd7 e0be 8ac5 a2be
000003c0: 26bc 03be 205f d3be 56b3 d1bd ecc8 71bd
000003d0: 92bc 803d 7594 16bf 4281 1abf cc82 c53c
000003e0: 90ab f53e 7ae2 923e e4be 21bf 9525 363e
000003f0: 3ab7 06bf 0858 a9be 76eb 1fbe 58b0 c7be

model/dense/BiasAdd/ReadVariableOp f4 [128]
0.012035917 0.068713956 0.049431268 0.01228705 -0.0076827523 -0.016222484 -0.03337681 -0.013545434
-0.03969328 -0.028485853 -0.028763061 -0.07056413 0.049137775 0.03569841 -0.0375243 -0.01604019
0.02346671 0.019761816 0.07483242 0.03191737 -0.009695183 -0.012146098 0.11312826 0.03812027
0.008317607 -0.00016543936 0.062153947 -0.033316627 -0.012424272 -0.038249962 -0.035246007 -0.035150502
0.022336233 0.050592758 0.067823984 0.11850662 -0.013688885 -0.0350517 -0.089759775 0.008123086
-0.029841151 -0.025228797 -0.018780813 -0.09524598 -0.044264916 -0.022346726 0.05911921 -0.04617578
-0.027874487 0.032823347 0.03788103 0.009712902 0.04165424 -0.05158642 0.060746074 0.0023651153
0.050752703 0.005121233 -0.026267335 0.04846522 -0.010579101 -0.03698562 0.057859316 -0.007775329
0.023228893 -0.022814767 -0.009437608 0.030757464 0.0292062 -0.06396625 0.0073914984 0.016149476
0.03223371 0.027518397 -0.012887073 0.008457063 -0.020624511 0.0051695956 0.0485462 0.016808627
0.034118786 0.0403851 0.046995886 0.009083047 0.01825134 -0.09329455 0.008924594 0.024209268
-0.09002768 0.030110145 0.02522762 -0.005997633 -0.008924022 -0.017756281 0.04450688 -0.12409841
-0.042921785 0.006631896 0.063050084 -0.098705664 0.01608455 -0.014401984 -0.024396433 0.002344187
0.022786783 -0.039429165 0.013874773 -0.079703644 -0.01721546 -0.031099465 0.015477771 0.061871845
-0.0056177736 -0.06397436 0.07987648 -0.098996505 0.022843149 0.041362233 -0.031538703 -0.024649968
-0.025842398 0.045070365 0.018650472 0.04005968 -0.07160413 0.014305314 0.0372541 -0.027946856
00000000: 4b32 453c e7b9 8c3d 7178 4a3d 9f4f 493c
00000010: 99bf fbbb 04e5 84bc 1fb6 08bd abed 5dbc
00000020: 6c95 22bd 2a5b e9bc 83a0 ebbc ed83 90bd
00000030: b144 493d 7f38 123d 15b3 19bd b766 83bc
00000040: 423d c03c 88e3 a13c bd41 993d cabb 023d
00000050: 8bd8 1ebc 6d00 47bc caaf e73d 0024 1c3d
00000060: 9346 083c ca79 2db9 2395 7e3d 0477 08bd
00000070: 2c8f 4bbc feab 1cbd 1e5e 10bd f9f9 0fbd
00000080: 7afa b63c 5a3a 4f3d 4de7 8a3d 99b3 f23d
00000090: 5847 60bc 5f92 0fbd f9d3 b7bd b116 053c
000000a0: 6e75 f4bc 9fac cebc 38da 99bc 5310 c3bd
000000b0: 214f 35bd 7b10 b7bc fc26 723d d122 3dbd
000000c0: 0959 e4bc c671 063d 2429 1b3d dd22 1f3c
000000d0: a39d 2a3d 484c 53bd e0d0 783d 0d00 1b3b
000000e0: 11e2 4f3d 04d0 a73b 982e d7bc 7783 463d
000000f0: f753 2dbc 3c7e 17bd e4fd 6c3d 30c8 febb
00000100: 854a be3c 09e6 babc 32a0 1abc 14f7 fb3c
00000110: d741 ef3c bd00 83bd 6234 f23b e84b 843c
00000120: 7f07 043d 436e e13c 4d24 53bc 7e8f 0a3c
00000130: bcf4 a8bc b665 a93b 61d8 463d 3fb2 893c
00000140: 24c0 0b3d d96a 253d c27e 403d 0fd1 143c
00000150: d683 953c 3711 bfbd 7638 123c 8452 c63c
00000160: 6f60 b8bd 8da9 f63c 27aa ce3c cb87 c4bb
00000170: 1036 12bc 9f75 91bc d94c 363d 4f27 febd
00000180: c1ce 2fbd 6050 d93b 6720 813d 3226 cabd
00000190: bfc3 833c 4df6 6bbc 07db c7bc efa0 193b
000001a0: 59ab ba3c 7a80 21bd 0453 633c aa3b a3bd
000001b0: 7007 8dbc 4ec4 febc 7a96 7d3c 556d 7d3d
000001c0: 4d15 b8bb fd04 83bd 4896 a33d aebe cabd
000001d0: 8e21 bb3c 726b 293d ba2e 01bd bbee c9bc
000001e0: 70b3 d3bc b49b 383d e0c8 983c 9e15 243d
000001f0: 30a5 92bd d660 6a3c c197 183d cef0 e4bc

model/dense_2/BiasAdd/ReadVariableOp f4 [5]
0.12860474 0.050712015 -0.26043597 0.038262818 -0.06112291
00000000: f6b0 033e 67b7 4f3d dd57 85be 79b9 1c3d
00000010: 045c 7abd

model/dense_1/BiasAdd/ReadVariableOp f4 [64]
0.073049895 0.0902818 0.09338017 0.06913764 0.1979896 0.018824954 0.09476878 0.06866913
0.04754059 0.2712639 -0.0354746 0.1425559 0.021668216 0.08528265 0.0923932 0.17738137
0.19195095 0.17629586 0.16305734 0.0717219 -0.08022167 -0.023925303 0.007546874 -0.014318818
-0.052826818 0.07924928 0.0624894 0.085668184 0.16141187 -0.020874076 0.002402509 0.018358788
0.05971898 -0.040845912 0.10467614 0.14605014 -0.035612065 0.055964373 -0.028290257 0.0121682
0.07694257 0.05220388 0.057267863 -0.009137648 0.04233166 -0.0137101235 0.08181784 -0.0031740998
0.032675613 -0.04406061 -0.00435796 -0.03285277 0.074464984 -0.05778916 0.060568456 -0.07140268
0.008260939 0.058411323 -0.028734693 0.09657944 0.030540073 0.0015086444 -0.039435808 0.041993722
00000000: 2f9b 953d aae5 b83d 1a3e bf3d 0998 8d3d
00000010: c9bd 4a3e ca36 9a3c 2216 c23d 67a2 8c3d
00000020: ecb9 423d 1ae3 8a3e d04d 11bd 2dfa 113e
00000030: 8b81 b13c aca8 ae3d a538 bd3d 76a3 353e
00000040: ca8e 443e e786 343e 81f8 263e eee2 923d
00000050: 424b a4bd fffe c3bc c54b f73b 7a99 6abc
00000060: ef60 58bd 724d a23d e3f4 7f3d cd72 af3d
00000070: 2749 253e 1c00 abbc 6a73 1d3b 2b65 963c
00000080: e49b 743d 0b4e 27bd 7260 d63d 2b8e 153e
00000090: f5dd 11bd e63a 653d f8c0 e7bc 215d 473c
000000a0: 1194 9d3d bcd3 553d b591 6a3d 13b6 15bc
000000b0: f663 2d3d 6da0 60bc 1d90 a73d 8f04 50bb
000000c0: ddd6 053d e678 34bd 38cd 8ebb a090 06bd
000000d0: 1981 983d 54b4 6cbd a116 783d 913b 92bd
000000e0: e458 073c b640 6f3d 0565 ebbc 71cb c53d
000000f0: 2d2f fa3c b5bd c53a 7187 21bd 9c01 2c3d

model/dense/MatMul i1 [128, 34] scale=0.007246738 zero_point=0
0.021740213 0.014493476 0.21740213 0.13044128 0.16667497 -0.08696085 -0.07246738 0.23914234
0.108701065 0.043480426 0.08696085 0.03623369 -0.13044128 -0.13768803 0.08696085 -0.15942824
-0.26088256 -0.21740213 -0.15942824 -0.108701065 -0.35509014 0.108701065 0.043480426 0.08696085
-0.115947805 -0.050727166 0.14493476 0.007246738 0.07246738 -0.18841518 0.31160972 0.06522064
-0.021740213 0.07246738 -0.20290866 -0.15942824 -0.29711625 -0.021740213 -0.3840771 0.07971412
-0.37683037 -0.014493476 -0.13044128 0.1739217 -0.19566192 0.021740213 -0.050727166 -0.09420759
0.3261032 -0.123194546 0.20290866 0.18841518 0.07246738 -0.028986951 0.007246738 0.21740213
0.23914234 0.021740213 -0.123194546 -0.10145433 -0.28986952 -0.15218149 0.15942824 -0.22464888
-0.48553145 -0.18841518 0.18841518 -0.03623369 0.19566192 0.108701065 -0.007246738 0.07971412
0.15218149 0.09420759 -0.021740213 -0.043480426 -0.014493476 0.057973903 -0.07246738 0.115947805
-0.24638909 0.23914234 0.007246738 -0.22464888 -0.24638909 0.014493476 0.15218149 0.09420759
-0.31160972 -0.3840771 -0.20290866 0.27537605 0.20290866 -0.050727166 -0.55799884 0.2681293
0.06522064 0.15942824 -0.3840771 0.39132383 0.13768803 0.0 -0.09420759 -0.21740213
-0.03623369 0.09420759 -0.057973903 0.108701065 0.03623369 0.20290866 0.18116845 0.021740213
-0.18841518 0.06522064 -0.18841518 -0.18841518 -0.03623369 0.15942824 -0.014493476 0.15218149
-0.10145433 0.123194546 -0.07971412 -0.06522064 0.25363582 -0.021740213 -0.28986952 -0.16667497
0.26088256 0.14493476 0.13768803 -0.07246738 -0.14493476 0.08696085 -0.06522064 0.0
-0.007246738 0.115947805 0.028986951 0.14493476 0.13044128 -0.16667497 -0.06522064 -0.13044128
0.13768803 0.09420759 -0.057973903 -0.115947805 0.1739217 -0.25363582 -0.13044128 0.13044128
0.07971412 -0.15218149 -0.22464888 -0.050727166 0.22464888 0.08696085 -0.03623369 -0.30436298
-0.043480426 0.028986951 0.56524557 0.06522064 -0.3478434 0.07246738 0.5724923 -0.043480426
-0.2681293 -0.15942824 0.028986951 -0.36958364 0.014493476 -0.2681293 0.03623369 -0.25363582
-0.050727166 -0.16667497 -0.09420759 -0.36958364 0.15218149 0.27537605 0.0 -0.46379122
-0.21740213 0.10145433 -0.043480426 -0.6739466 0.050727166 0.108701065 -0.021740213 -0.9203357
-0.28986952 0.25363582 0.28262278 -0.22464888 -0.07971412 -0.20290866 -0.115947805 0.3478434
-0.15218149 0.06522064 0.021740213 -0.014493476 0.123194546 -0.18841518 -0.057973903 -0.21740213
0.15942824 0.057973903 -0.043480426 0.08696085 -0.115947805 -0.26088256 0.050727166 0.014493476
-0.28986952 0.13768803 -0.16667497 0.26088256 -0.28986952 0.14493476 0.13044128 0.08696085
-0.4203108 0.18116845 0.03623369 0.028986951 -0.123194546 -0.33334994 0.40581733 -0.06522064
0.23914234 -0.057973903 0.26088256 0.08696085 -0.10145433 0.0 0.23189561 -0.007246738
0.021740213 -0.050727166 0.18116845 -0.028986951 0.13044128 -0.19566192 -0.028986951 0.24638909
0.16667497 0.021740213 0.13044128 -0.08696085 -0.35509014 0.043480426 0.07971412 -0.115947805
00000000: 0302 1e12 17f4 f621 0f06 0c05 eeed 0cea
00000010: dce2 eaf1 cf0f 060c f0f9 1401 0ae6 2b09
00000020: fd0a e4ea d7fd cb0b ccfe ee18 e503 f9f3
00000030: 2def 1c1a 0afc 011e 2103 eff2 d8eb 16e1
00000040: bde6 1afb 1b0f ff0b 150d fdfa fe08 f610
00000050: de21 01e1 de02 150d d5cb e426 1cf9 b325
00000060: 0916 cb36 1300 f3e2 fb0d f80f 051c 1903
00000070: e609 e6e6 fb16 fe15 f211 f5f7 23fd d8e9
00000080: 2414 13f6 ec0c f700 ff10 0414 12e9 f7ee
00000090: 130d f8f0 18dd ee12 0beb e1f9 1f0c fbd6
000000a0: fa04 4e09 d00a 4ffa dbea 04cd 02db 05dd
000000b0: f9e9 f3cd 1526 00c0 e20e faa3 070f fd81
000000c0: d823 27e1 f5e4 f030 eb09 03fe 11e6 f8e2
000000d0: 1608 fa0c f0dc 0702 d813 e924 d814 120c
000000e0: c619 0504 efd2 38f7 21f8 240c f200 20ff
000000f0: 03f9 19fc 12e5 fc22 1703 12f4 cf06 0bf0

model/dense_1/MatMul i1 [64, 128] scale=0.0063172677 zero_point=0
-0.037903607 0.09475902 -0.05053814 0.13266262 0.088441744 -0.448526 -0.11371082 -0.18951803
0.32218066 0.0 0.15793169 0.2716425 0.18320076 0.120028086 0.18320076 0.26532525
-0.15793169 -0.13266262 0.17056623 0.22742164 0.2147871 -0.4864296 -0.18951803 -0.0063172677
0.0063172677 -0.31586337 0.063172676 0.13897988 -0.18951803 0.06948994 -0.120028086 -0.27795976
-0.17688349 0.05685541 -0.16424896 0.044220872 -0.18951803 -0.13897988 -0.088441744 0.11371082
0.31586337 0.18320076 -0.09475902 0.075807214 -0.17056623 -0.29691157 0.26532525 -0.10107628
0.22742164 -0.19583529 -0.063172676 0.24005617 0.088441744 -0.120028086 0.063172676 0.031586338
0.3095461 -0.20846984 -0.06948994 -0.22110437 -0.19583529 -0.044220872 -0.19583529 -0.088441744
0.012634535 -0.075807214 -0.30322886 -0.2337389 0.17688349 0.012634535 -0.13897988 -0.088441744
-0.3095461 0.08212448 0.13897988 0.59382313 -0.17056623 0.05685541 0.0063172677 -0.16424896
0.05685541 0.11371082 0.088441744 -0.28427705 0.2337389 -0.08212448 -0.2337389 0.20215257
0.16424896 0.20215257 0.17056623 -0.36640152 0.18320076 -0.088441744 -0.0063172677 0.24637344
-0.28427705 0.075807214 -0.05685541 0.13897988 -0.12634535 -0.4674778 0.13897988 -0.063172676
-0.2147871 0.012634535 -0.2337389 -0.120028086 0.2905943 0.22110437 -0.075807214 0.0
0.02526907 0.15793169 -0.031586338 -0.018951803 -0.05053814 0.2147871 -0.10107628 -0.29691157
-0.08212448 0.12634535 0.36008427 0.16424896 -0.044220872 0.12634535 -0.05053814 -0.031586338
0.12634535 0.05053814 0.15793169 -0.05685541 0.075807214 0.37271878 -0.10739355 -0.10739355
-0.2147871 -0.06948994 -0.2337389 -0.2905943 0.0 0.24637344 0.0063172677 0.0
-0.012634535 0.20846984 0.20846984 -0.11371082 0.088441744 0.2337389 0.36640152 0.16424896
-0.075807214 -0.0063172677 0.37271878 -0.10739355 -0.13266262 -0.18320076 0.09475902 -0.02526907
0.13897988 0.10739355 0.25900796 0.34744972 0.10739355 0.037903607 -0.13897988 -0.09475902
0.05685541 -0.063172676 -0.15161443 -0.26532525 -0.2526907 -0.06948994 0.063172676 -0.05053814
-0.05053814 0.20846984 0.4295742 0.28427705 0.13897988 -0.20846984 0.06948994 0.075807214
0.075807214 0.3095461 -0.08212448 0.30322886 -0.037903607 -0.15161443 0.20846984 0.120028086
0.044220872 -0.10107628 0.120028086 0.20215257 0.037903607 -0.11371082 -0.031586338 0.037903607
0.39798787 0.3095461 -0.120028086 0.06948994 0.36008427 -0.16424896 0.037903607 0.14529715
0.120028086 0.05685541 0.02526907 -0.075807214 0.09475902 -0.36008427 0.018951803 0.037903607
-0.2147871 -0.031586338 0.17688349 0.5875059 0.26532525 -0.120028086 0.12634535 -0.17056623
-0.012634535 -0.14529715 0.34113246 -0.11371082 0.18320076 0.3095461 -0.19583529 -0.09475902
0.05685541 -0.11371082 -0.10107628 -0.2526907 -0.11371082 0.0 0.10739355 0.46116054
-0.037903607 0.24005617 0.24005617 -0.18320076 0.4864296 -0.06948994 -0.18951803 0.5559195
-0.13897988 0.0 -0.13266262 0.06948994 -0.37903607 0.19583529 0.20846984 0.012634535
00000000: fa0f f815 0eb9 eee2 3300 192b 1d13 1d2a
00000010: e7eb 1b24 22b3 e2ff 01ce 0a16 e20b edd4
00000020: e409 e607 e2ea f212 321d f10c e5d1 2af0
00000030: 24e1 f626 0eed 0a05 31df f5dd e1f9 e1f2
00000040: 02f4 d0db 1c02 eaf2 cf0d 165e e509 01e6
00000050: 0912 0ed3 25f3 db20 1a20 1bc6 1df2 ff27
00000060: d30c f716 ecb6 16f6 de02 dbed 2e23 f400
00000070: 0419 fbfd f822 f0d1 f314 391a f914 f8fb
00000080: 1408 19f7 0c3b efef def5 dbd2 0027 0100
00000090: fe21 21ee 0e25 3a1a f4ff 3bef ebe3 0ffc
000000a0: 1611 2937 1106 eaf1 09f6 e8d6 d8f5 0af8
000000b0: f821 442d 16df 0b0c 0c31 f330 fae8 2113
000000c0: 07f0 1320 06ee fb06 3f31 ed0b 39e6 0617
000000d0: 1309 04f4 0fc7 0306 defb 1c5d 2aed 14e5
000000e0: fee9 36ee 1d31 e1f1 09ee f0d8 ee00 1149
000000f0: fa26 26e3 4df5 e258 ea00 eb0b c41f 2102
