Computer_Vision/Tensorflow/models/FO models/fo_swing_classifier.tflite (tflite, 25792 bytes, 6 tensors)

arith.constant f4 [128]
00000000: 5a6b 46bc d75f 7bbc d179 f0bb a378 d4bc
00000010: dab2 92bb 0000 0000 0000 0000 4b22 e1ba
00000020: 467e b9bc edb3 a53c 6722 b03c 4ccf aa3c
00000030: 0000 0000 0000 0000 0000 0000 0000 0000
00000040: 0000 0000 0000 0000 e53a 7abc d7c2 a9bc
00000050: fdd7 e93a 0000 0000 01eb e8ba f8e1 61bc
00000060: 916c 2b3d 19a6 57bd 2da4 8cbc a0c5 8f3b
00000070: b196 f33c e1e2 443c 605d 02bc c376 6fbc
00000080: 9d97 173d f93c c23c 9840 153d 133b 133d
00000090: 0000 0000 49b7 c4bb 40af 95bc f052 2b3a
000000a0: 0000 0000 b0b3 73bd b116 673d 0000 0000
000000b0: 94eb 30bc c5f8 f63c 664e 163a ae50 4dbd
000000c0: 4a25 c23c 68f1 49ba b06a 94bb 267a 033c
000000d0: b49b 253d 23d9 863c f32c e53c 911b 123d
000000e0: 5bb3 f5bc 06c4 c4bb c4f0 66bc 66da 02bc
000000f0: 0000 0000 30a7 4d3d a870 453d 28a1 c03c
00000100: ca57 57bd 0000 0000 bcdf f83c 0000 0000
00000110: 22c8 2ebd f4e9 f93c 9c90 343c 780b 75bd
00000120: 2832 b5bb 0000 0000 0000 0000 25bb 11bc
00000130: 7cb7 2dbb 3874 8cbc 0000 0000 3275 703c
00000140: 97de e23c 9125 ef3b b2a6 173d 4a5e b0bc
00000150: 2a21 9abc d984 673d 0000 0000 0d5a 55bd
00000160: 3c39 92bd fd98 1bbd 17f5 43bc 1317 cb3b
00000170: e18b 05bc 243f 0a3d 149f aabb 0000 0000
00000180: f9a9 eabb b60b 023d 1f08 333d 0000 0000
00000190: a27b 7abc 9d4a 383a 9ac7 cebc a170 c5bc
000001a0: 1aeb a3bd 2b19 4d3c 52b9 7c3c 4e50 97bc
000001b0: 0000 0000 0000 0000 0000 0000 4ca5 203b
000001c0: 0000 0000 4f19 48bd 910a 8f3b 2c25 403c
000001d0: 6082 11bd 663e 80bb 526c d03c 6a02 b8bc
000001e0: 0000 0000 4ea1 693c 0000 0000 5b7a 73bc
000001f0: 5a56 ac3a 3ba9 43bc 0000 0000 00fa 7bbd
-0.012110556 -0.015342674 -0.0073387404 -0.02593643 -0.004476887 0.0 0.0 -0.0017176358
-0.02264322 0.020227397 0.02150078 0.0208508 0.0 0.0 0.0 0.0
0.0 0.0 -0.015272831 -0.02072279 0.0017840859 0.0 -0.0017770232 -0.013786785
0.041851584 -0.052648637 -0.017168129 0.0043875724 0.029734941 0.012016983 -0.007956833 -0.014615717
0.037009824 0.023710715 0.036438555 0.03594501 0.0 -0.0060032946 -0.018272042 0.0006535491
0.0 -0.059497535 0.056418125 0.0 -0.010798354 0.03014792 0.0005733728 -0.05012577
0.023699421 -0.0007703514 -0.0045293197 0.008024728 0.040431693 0.01646096 0.027975535 0.03567082
-0.02999275 -0.006004813 -0.014095489 -0.007986641 0.0 0.05020827 0.04820314 0.023514345
-0.052573957 0.0 0.030380122 0.0 -0.04267133 0.030507065 0.011020806 -0.05982539
-0.0055296607 0.0 0.0 -0.008894716 -0.002650707 -0.017145261 0.0 0.014676379
0.02769403 0.0072981794 0.037024207 -0.021529336 -0.018814642 0.056523178 0.0 -0.052087832
-0.07139823 -0.037987698 -0.011960289 0.006197819 -0.0081510255 0.03375162 -0.005206952 0.0
-0.0071613756 0.03174945 0.043708917 0.0 -0.015288265 0.0007030161 -0.025241662 -0.024101557
-0.080038264 0.012518208 0.015425043 -0.01847091 0.0 0.0 0.0 0.0024512587
0.0 -0.04885226 0.0043652733 0.011727612 -0.035524726 -0.0039136885 0.025442276 -0.022462089
0.0 0.014259649 0.0 -0.014860715 0.0013148293 -0.011942203 0.0 -0.061517715

arith.constant1 f4 [64]
00000000: 7a3a 773e 1ff9 0abe e87d b6bd 084d 7f3e
00000010: fe20 823d f72c f63c a7f8 ddbd f163 d43d
00000020: b00e c5bd 333d 79bd d800 9bbd 4a7b be3e
00000030: 1825 853c 1975 b63c eba0 20be dbd4 4bbc
00000040: abbd b83e 28ea f9bd 1e57 26bb cea5 b5bd
00000050: 2d2d 003d 16a6 9a3e 330a 4a3e c6e5 7cbd
00000060: b642 d1bd 26fc 4c3e a0a9 fd39 c60b 7abd
00000070: b241 8e3e b7e9 d0bd 9466 4dbd 7769 88bd
00000080: bedd dd3d b161 ca3c 1406 5ebe ab65 5b3c
00000090: 0be8 ee3d 7ed5 78bd 16d3 8b3e 9221 94bd
000000a0: 83ae af3d 54d5 163c d119 923e 857c 7f3e
000000b0: e503 6e3e 4db8 d33d d1c0 863e 11ed 1c3d
000000c0: a956 fcbd 3e21 173e 6e20 be3d 924d 613d
000000d0: 7076 603d 503b e0bd a991 d43d 36ec 8d3d
000000e0: 967a eb3e 4ef7 0a3e 1c10 3e3d 3ded 3e3d
000000f0: 113e e8bd 48fc de3d f6e3 bc3e c5a0 bbbd
0.24143401 -0.13571595 -0.089107335 0.24931729 0.06353949 0.030050738 -0.10838442 0.10370625
-0.09621942 -0.06084938 -0.0756852 0.37203437 0.01625304 0.022272633 -0.15686385 -0.012440885
0.36082205 -0.12202865 -0.0025381516 -0.08869515 0.031293083 0.3020484 0.19730453 -0.061742567
-0.10217802 0.20018062 0.000483823 -0.061046384 0.27784497 -0.102008276 -0.050146654 -0.06660741
0.108333096 0.024704786 -0.21682006 0.013390939 0.116653524 -0.060750477 0.27309483 -0.072329655
0.08578207 0.009206135 0.2853532 0.24949844 0.23243673 0.10337887 0.26318982 0.03831202
-0.123212166 0.14758775 0.09283529 0.055005617 0.05480045 -0.10948813 0.10379345 0.06929819
0.45991963 0.13570902 0.04640208 0.046612967 -0.11339963 0.108879626 0.3689267 -0.09161524

arith.constant2 f4 [9]
00000000: b35c 3d3f 6a97 433f 9086 343e 9087 71bd
00000010: d012 30be f435 0cbf f146 b8be c1a2 17be
00000020: 035e 94be
0.7396957 0.76402915 0.17629457 -0.058967173 -0.17194676 -0.54769826 -0.35991624 -0.1480818
-0.28977975

arith.constant20 f4 [9, 64]
00000000: 9689 0140 34ec 3ac0 64e3 33be 59dc a93f
00000010: e909 5e3e 0b75 1b3e 0c42 3cc0 e2c9 dcbc
00000020: 4516 3fbe 72d9 8abf b741 56bf a192 e33e
00000030: ddc2 7c3e 542d 55bf 753b 85bf beb1 3ebf
00000040: 865a 2a3f c6f5 6fbf 402d cabf a667 26c0
00000050: 2056 febe b42f 583f f261 2c3d ffbf 39be
00000060: 482e 0dbe 8962 6cbe d42b aebf 390f cabe
00000070: ae22 8f3e 2f82 50c0 db37 bebe 4082 12be
00000080: c17f 79be 0fe5 473e 5c09 17c0 c770 b4be
00000090: 15a3 b23e 5cad 39bf 3896 083f f27a 89be
000000a0: 12b5 2bbf 2a26 903e cbfa 383e c3c7 ee3f
000000b0: f231 fe3f 0127 aabe 8ee9 3d3f 74d9 823e
000000c0: 0a28 3ec0 6048 7e3e ad41 ccbd 8d56 72bf
000000d0: 2d72 d7be 9ab1 48c0 fd8c 89be a707 953e
000000e0: c0af c13e eb7a 55be d652 283e d430 813e
000000f0: 21fc 86be c3ea 343d 4815 d73e 6483 34c0
00000100: dcec babf fcf0 163e bc1d 91be 1698 9bbf
00000110: 4c9f 243e b9dd 2b3e c59c e13d 5dd6 1e3d
00000120: 315b 7f3e cd9f 07c0 3967 34bf 55df a63e
00000130: 2819 8b3e 99bf 7fbf 5c4e 96bf c0d8 afbf
00000140: 532b 03bf e9c7 37bf f560 22c0 bd2a 0c3e
00000150: 16d1 d0bf 2cdf 44bf 62dd 11bf 9596 b2bf
00000160: eb81 f8bd 7069 0fbf 1e68 0ac0 5c6c 9ebf
00000170: 1377 643e 1da5 cfbc d98f d7bf b9f0 84bd
00000180: 5dfc bdbd d880 16bf 3c29 84bf 2cc2 26bf
00000190: 96bd 20bf 4d8b bc3e aaf8 12bf e89c 8c3d
000001a0: 01b2 ad3d e3b1 8d3e aa65 fe3d abe2 cbbf
000001b0: abc8 c3bf f406 18be 3bbf 64bf 33f6 673e
000001c0: 31b2 ec3d af81 00be 50ac dabe 9871 16bf
000001d0: b02b 31bf 644a 663d 9924 79be fa0e 763e
000001e0: 4003 6f3e ae65 26bf bb8f 333e e160 393e
000001f0: 51a8 a0be 9436 efbf c3b6 813e 2333 023e
00000200: 4481 e8bc 2f3c 7c3e 8212 d13d 4805 fcbe
00000210: a6f6 cabd 37a2 6bbd 517e ed3d 19f6 a63e
00000220: 7cfd 81bc c6f6 003f 7b10 973e 6599 c8bf
00000230: cfb9 623c 0198 4bbf 9480 3a3e ad12 c63e
00000240: 7299 8ebf ca15 b73d c1a5 3cbf acae 333e
00000250: 6ca7 803e 7cdd 11bf b05e a5bf 1cc6 523e
00000260: 725c e63d 5cb5 d6bf 2ded a8be a9b7 ab3d
00000270: c9c6 c8bf bf3b 993d 193f 523e 2baa 603e
00000280: ceff c4bf 7105 7bbf 0d10 273e 4290 7fbe
00000290: ea92 87bf f70c c63e 63f5 a9bf 619f 76be
000002a0: 9ea2 613e f2fe c13d 4f68 ebbf 7b0c efbe
000002b0: 0c50 1dbf b649 16c0 c781 d1be 843e 423d
000002c0: 283a 4c3e 946d b0bf 28b6 9dbf c7e1 4c3e
000002d0: b110 6ebf c45e 1c3e ea8d e7bf 1f5a 1e3d
000002e0: afc1 f3bf e37e 0fc0 bc1b d4bc 2e0b f2bb
000002f0: fb89 0a3e 7e77 aabf 7a3f edbf 6f8b 6f3e
00000300: 07fa 303e bc98 7e3e 98d8 02be cfcd 76be
00000310: 3be9 f8bf 8dcd c5bf 5c6b 023e 5a89 9b3e
00000320: e27d 6dbe 9361 0ebe 0e62 983e 1053 57bf
00000330: a1dc fcbf eb6f 0dbe 915e 2ebf faaf c8be
00000340: f424 d9be 4006 f73d 880a 24bf af34 173e
00000350: 7954 7e3e a868 023e a2e6 f03e 9971 8c3e
00000360: 38d3 76be 479c 293f 4972 50bf c375 443e
00000370: 5fd3 5fbf 76b0 983d f360 853e 4dc2 41be
00000380: 4994 2a3f 9d31 303f e589 473e 6479 7dbf
00000390: c7c4 363f 3844 203e 1417 03bf 9867 21be
000003a0: 062b 033e 53e5 1cc0 cea8 a7bf 0c53 08be
000003b0: 4f18 7ebe 0ab0 833f de55 65be 9d2b 2fc0
000003c0: 75a3 3c3e 2707 a43f ef78 093f 0ddd 4d3e
000003d0: 1e24 dd3e 5735 173e fa0b 933f 68a6 2cc0
000003e0: 931e 59bf db4d a73f ee10 1dc0 23b5 d4bf
000003f0: 38d9 dfbd 0721 38be a385 1fbf 0aba 5e3e
2.0240226 -2.9206667 -0.17567211 1.327037 0.21683468 0.15181367 -2.9415312 -0.026951734
-0.18660839 -1.0847609 -0.8369402 0.44447806 0.2468371 -0.8327229 -1.040877 -0.74489963
0.6654438 -0.93734396 -1.5795059 -2.6000762 -0.49675083 0.8444779 0.042085595 -0.18139647
-0.13787186 -0.23084463 -1.3607125 -0.3946474 0.27956146 -3.2579458 -0.3715199 -0.14307499
-0.2436514 0.19520973 -2.3599463 -0.35242292 0.34890047 -0.7253015 0.53354216 -0.26851612
-0.67073166 0.28154117 0.1806442 1.8654712 1.9858992 -0.33232883 0.741845 0.2555653
-2.9711938 0.24832296 -0.09973464 -0.94663316 -0.42079297 -3.13584 -0.26865378 0.291074
0.378294 -0.2084767 0.1643785 0.25232565 -0.26364234 0.0441692 0.42008424 -2.8205194
-1.4603534 0.14740366 -0.28342998 -1.2155788 0.16076392 0.16783799 0.110162295 0.03877865
0.2493713 -2.1191285 -0.70470005 0.32592264 0.2716763 -0.9990173 -1.1742663 -1.3738022
-0.5123798 -0.71789414 -2.5371678 0.13688178 -1.6313808 -0.76903033 -0.5697843 -1.3952204
-0.12134155 -0.5602026 -2.1626048 -1.2376819 0.22311048 -0.025347287 -1.6840774 -0.06491227
-0.0927665 -0.5879035 -1.0325084 -0.6514003 -0.62789285 0.36825028 -0.5741068 0.06865865
0.08481217 0.2767478 0.12421735 -1.5928549 -1.5295614 -0.14846402 -0.89354295 0.22652511
0.11557425 -0.1254947 -0.4270959 -0.5876708 -0.69207287 0.05622329 -0.24330367 0.2402915
0.23341084 -0.649989 0.17535298 0.18103363 -0.31378415 -1.8688531 0.2533475 0.1271482
-0.028381951 0.24632333 0.10208608 -0.4922278 -0.09910326 -0.057527747 0.115963586 0.32609633
-0.015867941 0.50376546 0.2950476 -1.5671812 0.0138382455 -0.79528815 0.18213111 0.38686123
-1.1140578 0.08939703 -0.7369042 0.17547101 0.25127733 -0.56978583 -1.2919521 0.20583385
0.11248101 -1.6774096 -0.3299345 0.0838464 -1.5685664 0.07482099 0.20531882 0.21939914
-1.5390565 -0.9805518 0.16314717 -0.24957374 -1.059171 0.38681766 -1.3278011 -0.24084236
0.2203469 0.09472455 -1.8391207 -0.4668921 -0.61450267 -2.348249 -0.40919325 0.0474229
0.1994406 -1.378344 -1.2321215 0.20008002 -0.9299422 0.15270525 -1.8090184 0.038660165
-1.9043483 -2.2421196 -0.025892131 -0.0073865866 0.13529198 -1.3317716 -1.8534997 0.23393033
0.17282878 0.24862951 -0.12777936 -0.24101947 -1.9446176 -1.5453354 0.12736267 0.30378228
-0.23192552 -0.13904409 0.2976231 -0.8411112 -1.9754831 -0.13812225 -0.68113047 -0.3919676
-0.42411005 0.12061739 -0.6407857 0.14766191 0.24836911 0.12735236 0.4705096 0.27430418
-0.24104011 0.66254085 -0.81424385 0.19185548 -0.874319 0.07455532 0.2605053 -0.18921776
0.66632515 0.68825704 0.19486196 -0.9901335 0.7139401 0.15651023 -0.5120709 -0.15762174
0.12809381 -2.4514968 -1.309839 -0.1331293 -0.2481396 1.0288098 -0.22396037 -2.737037
0.18421729 1.2814683 0.53700155 0.20103855 0.43191618 0.14766441 1.148803 -2.6976566
-0.8481228 1.3070635 -2.4541583 -1.6617779 -0.10930103 -0.17981349 -0.6231329 0.21750656

tfl.pseudo_qconst i1 [64, 128] scale=0.0261766 zero_point=0
00000000: faea fcfe fffb 03e6 fd01 ecff 0305 02fe
00000010: fc06 fff1 daff fcfb 0006 fed8 ded9 f904
00000020: 03e2 0104 0002 eedd fae0 fefe fdff 0205
00000030: 01d7 04db 00e0 e900 ef07 de02 fb00 1700
00000040: dc02 eaff df00 d6ee e904 fd04 030d 03e5
00000050: d4ff fed9 d901 02f1 ded6 ea0d 050f d705
00000060: 0217 ff01 07e4 02fd de01 03fc 04fd 02eb
00000070: fd00 e3e1 fef0 01fb fd01 fb05 e902 fafc
00000080: fb21 00ff fbfc fd21 fe00 0300 05fb 01ff
00000090: 0203 ff02 2afc fb07 0105 ff24 1822 fffa
000000a0: ff1f 00fe 02ff 2227 0706 fffb 0200 ff06
000000b0: 0010 fd28 0325 f701 0b04 1eff 0102 f001
000000c0: fdfa 1afd 22ff 100f 2504 06fe 0603 fd23
000000d0: 1eff 0016 1e00 fd09 121b 21ff ff02 1a06
000000e0: 01f0 0103 0422 fa05 fd01 fd02 0103 0327
000000f0: 0005 1e25 0222 0103 fbfe 04f9 1d06 ff04
-0.1570596 -0.5758852 -0.1047064 -0.0523532 -0.0261766 -0.130883 0.0785298 -0.6805916
-0.0785298 0.0261766 -0.523532 -0.0261766 0.0785298 0.130883 0.0523532 -0.0523532
-0.1047064 0.1570596 -0.0261766 -0.392649 -0.9947108 -0.0261766 -0.1047064 -0.130883
0.0 0.1570596 -0.0523532 -1.047064 -0.8900044 -1.0208874 -0.1832362 0.1047064
0.0785298 -0.785298 0.0261766 0.1047064 0.0 0.0523532 -0.4711788 -0.91618097
-0.1570596 -0.8376512 -0.0523532 -0.0523532 -0.0785298 -0.0261766 0.0523532 0.130883
0.0261766 -1.0732406 0.1047064 -0.9685342 0.0 -0.8376512 -0.6020618 0.0
-0.4450022 0.1832362 -0.8900044 0.0523532 -0.130883 0.0 0.6020618 0.0
-0.9423576 0.0523532 -0.5758852 -0.0261766 -0.86382776 0.0 -1.0994172 -0.4711788
-0.6020618 0.1047064 -0.0785298 0.1047064 0.0785298 0.3402958 0.0785298 -0.7067682
-1.1517704 -0.0261766 -0.0523532 -1.0208874 -1.0208874 0.0261766 0.0523532 -0.392649
-0.8900044 -1.0994172 -0.5758852 0.3402958 0.130883 0.392649 -1.0732406 0.130883
0.0523532 0.6020618 -0.0261766 0.0261766 0.1832362 -0.7329448 0.0523532 -0.0785298
-0.8900044 0.0261766 0.0785298 -0.1047064 0.1047064 -0.0785298 0.0523532 -0.5497086
-0.0785298 0.0 -0.7591214 -0.8114746 -0.0523532 -0.4188256 0.0261766 -0.130883
-0.0785298 0.0261766 -0.130883 0.130883 -0.6020618 0.0523532 -0.1570596 -0.1047064
-0.130883 0.86382776 0.0 -0.0261766 -0.130883 -0.1047064 -0.0785298 0.86382776
-0.0523532 0.0 0.0785298 0.0 0.130883 -0.130883 0.0261766 -0.0261766
0.0523532 0.0785298 -0.0261766 0.0523532 1.0994172 -0.1047064 -0.130883 0.1832362
0.0261766 0.130883 -0.0261766 0.9423576 0.6282384 0.8900044 -0.0261766 -0.1570596
-0.0261766 0.8114746 0.0 -0.0523532 0.0523532 -0.0261766 0.8900044 1.0208874
0.1832362 0.1570596 -0.0261766 -0.130883 0.0523532 0.0 -0.0261766 0.1570596
0.0 0.4188256 -0.0785298 1.047064 0.0785298 0.9685342 -0.2355894 0.0261766
0.2879426 0.1047064 0.785298 -0.0261766 0.0261766 0.0523532 -0.4188256 0.0261766
-0.0785298 -0.1570596 0.6805916 -0.0785298 0.8900044 -0.0261766 0.4188256 0.392649
0.9685342 0.1047064 0.1570596 -0.0523532 0.1570596 0.0785298 -0.0785298 0.91618097
0.785298 -0.0261766 0.0 0.5758852 0.785298 0.0 -0.0785298 0.2355894
0.4711788 0.7067682 0.86382776 -0.0261766 -0.0261766 0.0523532 0.6805916 0.1570596
0.0261766 -0.4188256 0.0261766 0.0785298 0.1047064 0.8900044 -0.1570596 0.130883
-0.0785298 0.0261766 -0.0785298 0.0523532 0.0261766 0.0785298 0.0785298 1.0208874
0.0 0.130883 0.785298 0.9685342 0.0523532 0.8900044 0.0261766 0.0785298
-0.130883 -0.0523532 0.1047064 -0.1832362 0.7591214 0.1570596 -0.0261766 0.1047064

tfl.pseudo_qconst1 i1 [128, 34] scale=0.028956596 zero_point=0
00000000: fcfe fb06 02ff fdfe fbfc 0504 0500 0501
00000010: fbfd 0304 ff02 0503 05fd 0302 05fe ff02
00000020: 04fb fdf8 ff04 01fc f600 fcf9 f505 0800
00000030: edee 07e9 f0e3 fada 02d3 0731 fe03 fa01
00000040: 0105 fb02 fd03 fdfa 0603 0602 0302 fa00
00000050: 0100 f905 0000 f9ff 0404 0406 06fc fdfe
00000060: fb00 05fe 0505 1bf8 23f8 27fc 2302 3afb
00000070: 0d08 09fe ff0d f004 ef09 f011 f213 0eef
00000080: 0609 1501 24fe 2404 ff06 f9fe 0406 03fb
00000090: 0303 fe00 06fa fafc 0500 02ff 0404 05fc
000000a0: 0301 02fb 0405 fefe 0601 0000 fffc fefe
000000b0: 0606 fd01 0403 0700 00fc 0206 0301 0501
000000c0: fa01 0106 fcff fafd 06fb 06ff fb02 03fe
000000d0: 05fe ff04 0406 fa02 00fa 05fe fb03 0604
000000e0: 0001 0306 fd06 fafd fe00 0501 fcfa fa01
000000f0: fbfe fffa 0201 0000 f500 0efa f2e8 0fe7
-0.11582638 -0.05791319 -0.14478298 0.17373958 0.05791319 -0.028956596 -0.08686979 -0.05791319
-0.14478298 -0.11582638 0.14478298 0.11582638 0.14478298 0.0 0.14478298 0.028956596
-0.14478298 -0.08686979 0.08686979 0.11582638 -0.028956596 0.05791319 0.14478298 0.08686979
0.14478298 -0.08686979 0.08686979 0.05791319 0.14478298 -0.05791319 -0.028956596 0.05791319
0.11582638 -0.14478298 -0.08686979 -0.23165277 -0.028956596 0.11582638 0.028956596 -0.11582638
-0.28956595 0.0 -0.11582638 -0.20269617 -0.31852254 0.14478298 0.23165277 0.0
-0.5501753 -0.5212187 0.20269617 -0.6660017 -0.46330553 -0.8397413 -0.17373958 -1.1003506
0.05791319 -1.3030468 0.20269617 1.4188732 -0.05791319 0.08686979 -0.17373958 0.028956596
0.028956596 0.14478298 -0.14478298 0.05791319 -0.08686979 0.08686979 -0.08686979 -0.17373958
0.17373958 0.08686979 0.17373958 0.05791319 0.08686979 0.05791319 -0.17373958 0.0
0.028956596 0.0 -0.20269617 0.14478298 0.0 0.0 -0.20269617 -0.028956596
0.11582638 0.11582638 0.11582638 0.17373958 0.17373958 -0.11582638 -0.08686979 -0.05791319
-0.14478298 0.0 0.14478298 -0.05791319 0.14478298 0.14478298 0.7818281 -0.23165277
1.0134809 -0.23165277 1.1293073 -0.11582638 1.0134809 0.05791319 1.6794826 -0.14478298
0.37643576 0.23165277 0.26060936 -0.05791319 -0.028956596 0.37643576 -0.46330553 0.11582638
-0.49226213 0.26060936 -0.46330553 0.49226213 -0.40539235 0.5501753 0.40539235 -0.49226213
0.17373958 0.26060936 0.6080885 0.028956596 1.0424374 -0.05791319 1.0424374 0.11582638
-0.028956596 0.17373958 -0.20269617 -0.05791319 0.11582638 0.17373958 0.08686979 -0.14478298
0.08686979 0.08686979 -0.05791319 0.0 0.17373958 -0.17373958 -0.17373958 -0.11582638
0.14478298 0.0 0.05791319 -0.028956596 0.11582638 0.11582638 0.14478298 -0.11582638
0.08686979 0.028956596 0.05791319 -0.14478298 0.11582638 0.14478298 -0.05791319 -0.05791319
0.17373958 0.028956596 0.0 0.0 -0.028956596 -0.11582638 -0.05791319 -0.05791319
0.17373958 0.17373958 -0.08686979 0.028956596 0.11582638 0.08686979 0.20269617 0.0
0.0 -0.11582638 0.05791319 0.17373958 0.08686979 0.028956596 0.14478298 0.028956596
-0.17373958 0.028956596 0.028956596 0.17373958 -0.11582638 -0.028956596 -0.17373958 -0.08686979
0.17373958 -0.14478298 0.17373958 -0.028956596 -0.14478298 0.05791319 0.08686979 -0.05791319
0.14478298 -0.05791319 -0.028956596 0.11582638 0.11582638 0.17373958 -0.17373958 0.05791319
0.0 -0.17373958 0.14478298 -0.05791319 -0.14478298 0.08686979 0.17373958 0.11582638
0.0 0.028956596 0.08686979 0.17373958 -0.08686979 0.17373958 -0.17373958 -0.08686979
-0.05791319 0.0 0.14478298 0.028956596 -0.11582638 -0.17373958 -0.17373958 0.028956596
-0.14478298 -0.05791319 -0.028956596 -0.17373958 0.05791319 0.028956596 0.0 0.0
-0.31852254 0.0 0.40539235 -0.17373958 -0.40539235 -0.6949583 0.43434894 -0.7239149
